module {
  aie.device(npu1_4col) {
    %tile_0_1 = aie.tile(0, 1)
    %tile_1_1 = aie.tile(1, 1)
    %tile_2_1 = aie.tile(2, 1)
    %tile_3_1 = aie.tile(3, 1)
    %__L2_tmp3 = aie.buffer(%tile_3_1) {sym_name = "__L2_tmp3"} : memref<1xi8> 
    %__L2_tmp2 = aie.buffer(%tile_2_1) {sym_name = "__L2_tmp2"} : memref<1xi8> 
    %__L2_tmp1 = aie.buffer(%tile_1_1) {sym_name = "__L2_tmp1"} : memref<1xi8> 
    %__L2_tmp0 = aie.buffer(%tile_0_1) {sym_name = "__L2_tmp0"} : memref<1xi8> 
    func.func @matadd(%arg0: memref<?xf32>, %arg1: memref<?xf32>, %arg2: memref<?xf32>) {
      %c199 = arith.constant 199 : index
      %c198 = arith.constant 198 : index
      %c197 = arith.constant 197 : index
      %c196 = arith.constant 196 : index
      %c195 = arith.constant 195 : index
      %c194 = arith.constant 194 : index
      %c193 = arith.constant 193 : index
      %c192 = arith.constant 192 : index
      %c191 = arith.constant 191 : index
      %c190 = arith.constant 190 : index
      %c189 = arith.constant 189 : index
      %c188 = arith.constant 188 : index
      %c187 = arith.constant 187 : index
      %c186 = arith.constant 186 : index
      %c185 = arith.constant 185 : index
      %c184 = arith.constant 184 : index
      %c183 = arith.constant 183 : index
      %c182 = arith.constant 182 : index
      %c181 = arith.constant 181 : index
      %c180 = arith.constant 180 : index
      %c179 = arith.constant 179 : index
      %c178 = arith.constant 178 : index
      %c177 = arith.constant 177 : index
      %c176 = arith.constant 176 : index
      %c175 = arith.constant 175 : index
      %c174 = arith.constant 174 : index
      %c173 = arith.constant 173 : index
      %c172 = arith.constant 172 : index
      %c171 = arith.constant 171 : index
      %c170 = arith.constant 170 : index
      %c169 = arith.constant 169 : index
      %c168 = arith.constant 168 : index
      %c167 = arith.constant 167 : index
      %c166 = arith.constant 166 : index
      %c165 = arith.constant 165 : index
      %c164 = arith.constant 164 : index
      %c163 = arith.constant 163 : index
      %c162 = arith.constant 162 : index
      %c161 = arith.constant 161 : index
      %c160 = arith.constant 160 : index
      %c159 = arith.constant 159 : index
      %c158 = arith.constant 158 : index
      %c157 = arith.constant 157 : index
      %c156 = arith.constant 156 : index
      %c155 = arith.constant 155 : index
      %c154 = arith.constant 154 : index
      %c153 = arith.constant 153 : index
      %c152 = arith.constant 152 : index
      %c151 = arith.constant 151 : index
      %c150 = arith.constant 150 : index
      %c149 = arith.constant 149 : index
      %c148 = arith.constant 148 : index
      %c147 = arith.constant 147 : index
      %c146 = arith.constant 146 : index
      %c145 = arith.constant 145 : index
      %c144 = arith.constant 144 : index
      %c143 = arith.constant 143 : index
      %c142 = arith.constant 142 : index
      %c141 = arith.constant 141 : index
      %c140 = arith.constant 140 : index
      %c139 = arith.constant 139 : index
      %c138 = arith.constant 138 : index
      %c137 = arith.constant 137 : index
      %c136 = arith.constant 136 : index
      %c135 = arith.constant 135 : index
      %c134 = arith.constant 134 : index
      %c133 = arith.constant 133 : index
      %c132 = arith.constant 132 : index
      %c131 = arith.constant 131 : index
      %c130 = arith.constant 130 : index
      %c129 = arith.constant 129 : index
      %c128 = arith.constant 128 : index
      %c127 = arith.constant 127 : index
      %c126 = arith.constant 126 : index
      %c125 = arith.constant 125 : index
      %c124 = arith.constant 124 : index
      %c123 = arith.constant 123 : index
      %c122 = arith.constant 122 : index
      %c121 = arith.constant 121 : index
      %c120 = arith.constant 120 : index
      %c119 = arith.constant 119 : index
      %c118 = arith.constant 118 : index
      %c117 = arith.constant 117 : index
      %c116 = arith.constant 116 : index
      %c115 = arith.constant 115 : index
      %c114 = arith.constant 114 : index
      %c113 = arith.constant 113 : index
      %c112 = arith.constant 112 : index
      %c111 = arith.constant 111 : index
      %c110 = arith.constant 110 : index
      %c109 = arith.constant 109 : index
      %c108 = arith.constant 108 : index
      %c107 = arith.constant 107 : index
      %c106 = arith.constant 106 : index
      %c105 = arith.constant 105 : index
      %c104 = arith.constant 104 : index
      %c103 = arith.constant 103 : index
      %c102 = arith.constant 102 : index
      %c101 = arith.constant 101 : index
      %c100 = arith.constant 100 : index
      %c99 = arith.constant 99 : index
      %c98 = arith.constant 98 : index
      %c97 = arith.constant 97 : index
      %c96 = arith.constant 96 : index
      %c95 = arith.constant 95 : index
      %c94 = arith.constant 94 : index
      %c93 = arith.constant 93 : index
      %c92 = arith.constant 92 : index
      %c91 = arith.constant 91 : index
      %c90 = arith.constant 90 : index
      %c89 = arith.constant 89 : index
      %c88 = arith.constant 88 : index
      %c87 = arith.constant 87 : index
      %c86 = arith.constant 86 : index
      %c85 = arith.constant 85 : index
      %c84 = arith.constant 84 : index
      %c83 = arith.constant 83 : index
      %c82 = arith.constant 82 : index
      %c81 = arith.constant 81 : index
      %c80 = arith.constant 80 : index
      %c79 = arith.constant 79 : index
      %c78 = arith.constant 78 : index
      %c77 = arith.constant 77 : index
      %c76 = arith.constant 76 : index
      %c75 = arith.constant 75 : index
      %c74 = arith.constant 74 : index
      %c73 = arith.constant 73 : index
      %c72 = arith.constant 72 : index
      %c71 = arith.constant 71 : index
      %c70 = arith.constant 70 : index
      %c69 = arith.constant 69 : index
      %c68 = arith.constant 68 : index
      %c67 = arith.constant 67 : index
      %c66 = arith.constant 66 : index
      %c65 = arith.constant 65 : index
      %c64 = arith.constant 64 : index
      %c63 = arith.constant 63 : index
      %c62 = arith.constant 62 : index
      %c61 = arith.constant 61 : index
      %c60 = arith.constant 60 : index
      %c59 = arith.constant 59 : index
      %c58 = arith.constant 58 : index
      %c57 = arith.constant 57 : index
      %c56 = arith.constant 56 : index
      %c55 = arith.constant 55 : index
      %c54 = arith.constant 54 : index
      %c53 = arith.constant 53 : index
      %c52 = arith.constant 52 : index
      %c51 = arith.constant 51 : index
      %c50 = arith.constant 50 : index
      %c49 = arith.constant 49 : index
      %c48 = arith.constant 48 : index
      %c47 = arith.constant 47 : index
      %c46 = arith.constant 46 : index
      %c45 = arith.constant 45 : index
      %c44 = arith.constant 44 : index
      %c43 = arith.constant 43 : index
      %c42 = arith.constant 42 : index
      %c41 = arith.constant 41 : index
      %c40 = arith.constant 40 : index
      %c39 = arith.constant 39 : index
      %c38 = arith.constant 38 : index
      %c37 = arith.constant 37 : index
      %c36 = arith.constant 36 : index
      %c35 = arith.constant 35 : index
      %c34 = arith.constant 34 : index
      %c33 = arith.constant 33 : index
      %c32 = arith.constant 32 : index
      %c31 = arith.constant 31 : index
      %c30 = arith.constant 30 : index
      %c29 = arith.constant 29 : index
      %c28 = arith.constant 28 : index
      %c27 = arith.constant 27 : index
      %c26 = arith.constant 26 : index
      %c25 = arith.constant 25 : index
      %c24 = arith.constant 24 : index
      %c23 = arith.constant 23 : index
      %c22 = arith.constant 22 : index
      %c21 = arith.constant 21 : index
      %c20 = arith.constant 20 : index
      %c19 = arith.constant 19 : index
      %c18 = arith.constant 18 : index
      %c17 = arith.constant 17 : index
      %c16 = arith.constant 16 : index
      %c15 = arith.constant 15 : index
      %c14 = arith.constant 14 : index
      %c13 = arith.constant 13 : index
      %c12 = arith.constant 12 : index
      %c11 = arith.constant 11 : index
      %c10 = arith.constant 10 : index
      %c9 = arith.constant 9 : index
      %c8 = arith.constant 8 : index
      %c7 = arith.constant 7 : index
      %c6 = arith.constant 6 : index
      %c5 = arith.constant 5 : index
      %c4 = arith.constant 4 : index
      %c3 = arith.constant 3 : index
      %c2 = arith.constant 2 : index
      %c1 = arith.constant 1 : index
      %c0 = arith.constant 0 : index
      %0 = memref.load %arg0[%c0] : memref<?xf32>
      %1 = memref.load %arg1[%c0] : memref<?xf32>
      %2 = arith.addf %0, %1 : f32
      memref.store %2, %arg2[%c0] : memref<?xf32>
      %3 = memref.load %arg0[%c1] : memref<?xf32>
      %4 = memref.load %arg1[%c1] : memref<?xf32>
      %5 = arith.addf %3, %4 : f32
      memref.store %5, %arg2[%c1] : memref<?xf32>
      %6 = memref.load %arg0[%c2] : memref<?xf32>
      %7 = memref.load %arg1[%c2] : memref<?xf32>
      %8 = arith.addf %6, %7 : f32
      memref.store %8, %arg2[%c2] : memref<?xf32>
      %9 = memref.load %arg0[%c3] : memref<?xf32>
      %10 = memref.load %arg1[%c3] : memref<?xf32>
      %11 = arith.addf %9, %10 : f32
      memref.store %11, %arg2[%c3] : memref<?xf32>
      %12 = memref.load %arg0[%c4] : memref<?xf32>
      %13 = memref.load %arg1[%c4] : memref<?xf32>
      %14 = arith.addf %12, %13 : f32
      memref.store %14, %arg2[%c4] : memref<?xf32>
      %15 = memref.load %arg0[%c5] : memref<?xf32>
      %16 = memref.load %arg1[%c5] : memref<?xf32>
      %17 = arith.addf %15, %16 : f32
      memref.store %17, %arg2[%c5] : memref<?xf32>
      %18 = memref.load %arg0[%c6] : memref<?xf32>
      %19 = memref.load %arg1[%c6] : memref<?xf32>
      %20 = arith.addf %18, %19 : f32
      memref.store %20, %arg2[%c6] : memref<?xf32>
      %21 = memref.load %arg0[%c7] : memref<?xf32>
      %22 = memref.load %arg1[%c7] : memref<?xf32>
      %23 = arith.addf %21, %22 : f32
      memref.store %23, %arg2[%c7] : memref<?xf32>
      %24 = memref.load %arg0[%c8] : memref<?xf32>
      %25 = memref.load %arg1[%c8] : memref<?xf32>
      %26 = arith.addf %24, %25 : f32
      memref.store %26, %arg2[%c8] : memref<?xf32>
      %27 = memref.load %arg0[%c9] : memref<?xf32>
      %28 = memref.load %arg1[%c9] : memref<?xf32>
      %29 = arith.addf %27, %28 : f32
      memref.store %29, %arg2[%c9] : memref<?xf32>
      %30 = memref.load %arg0[%c10] : memref<?xf32>
      %31 = memref.load %arg1[%c10] : memref<?xf32>
      %32 = arith.addf %30, %31 : f32
      memref.store %32, %arg2[%c10] : memref<?xf32>
      %33 = memref.load %arg0[%c11] : memref<?xf32>
      %34 = memref.load %arg1[%c11] : memref<?xf32>
      %35 = arith.addf %33, %34 : f32
      memref.store %35, %arg2[%c11] : memref<?xf32>
      %36 = memref.load %arg0[%c12] : memref<?xf32>
      %37 = memref.load %arg1[%c12] : memref<?xf32>
      %38 = arith.addf %36, %37 : f32
      memref.store %38, %arg2[%c12] : memref<?xf32>
      %39 = memref.load %arg0[%c13] : memref<?xf32>
      %40 = memref.load %arg1[%c13] : memref<?xf32>
      %41 = arith.addf %39, %40 : f32
      memref.store %41, %arg2[%c13] : memref<?xf32>
      %42 = memref.load %arg0[%c14] : memref<?xf32>
      %43 = memref.load %arg1[%c14] : memref<?xf32>
      %44 = arith.addf %42, %43 : f32
      memref.store %44, %arg2[%c14] : memref<?xf32>
      %45 = memref.load %arg0[%c15] : memref<?xf32>
      %46 = memref.load %arg1[%c15] : memref<?xf32>
      %47 = arith.addf %45, %46 : f32
      memref.store %47, %arg2[%c15] : memref<?xf32>
      %48 = memref.load %arg0[%c16] : memref<?xf32>
      %49 = memref.load %arg1[%c16] : memref<?xf32>
      %50 = arith.addf %48, %49 : f32
      memref.store %50, %arg2[%c16] : memref<?xf32>
      %51 = memref.load %arg0[%c17] : memref<?xf32>
      %52 = memref.load %arg1[%c17] : memref<?xf32>
      %53 = arith.addf %51, %52 : f32
      memref.store %53, %arg2[%c17] : memref<?xf32>
      %54 = memref.load %arg0[%c18] : memref<?xf32>
      %55 = memref.load %arg1[%c18] : memref<?xf32>
      %56 = arith.addf %54, %55 : f32
      memref.store %56, %arg2[%c18] : memref<?xf32>
      %57 = memref.load %arg0[%c19] : memref<?xf32>
      %58 = memref.load %arg1[%c19] : memref<?xf32>
      %59 = arith.addf %57, %58 : f32
      memref.store %59, %arg2[%c19] : memref<?xf32>
      %60 = memref.load %arg0[%c20] : memref<?xf32>
      %61 = memref.load %arg1[%c20] : memref<?xf32>
      %62 = arith.addf %60, %61 : f32
      memref.store %62, %arg2[%c20] : memref<?xf32>
      %63 = memref.load %arg0[%c21] : memref<?xf32>
      %64 = memref.load %arg1[%c21] : memref<?xf32>
      %65 = arith.addf %63, %64 : f32
      memref.store %65, %arg2[%c21] : memref<?xf32>
      %66 = memref.load %arg0[%c22] : memref<?xf32>
      %67 = memref.load %arg1[%c22] : memref<?xf32>
      %68 = arith.addf %66, %67 : f32
      memref.store %68, %arg2[%c22] : memref<?xf32>
      %69 = memref.load %arg0[%c23] : memref<?xf32>
      %70 = memref.load %arg1[%c23] : memref<?xf32>
      %71 = arith.addf %69, %70 : f32
      memref.store %71, %arg2[%c23] : memref<?xf32>
      %72 = memref.load %arg0[%c24] : memref<?xf32>
      %73 = memref.load %arg1[%c24] : memref<?xf32>
      %74 = arith.addf %72, %73 : f32
      memref.store %74, %arg2[%c24] : memref<?xf32>
      %75 = memref.load %arg0[%c25] : memref<?xf32>
      %76 = memref.load %arg1[%c25] : memref<?xf32>
      %77 = arith.addf %75, %76 : f32
      memref.store %77, %arg2[%c25] : memref<?xf32>
      %78 = memref.load %arg0[%c26] : memref<?xf32>
      %79 = memref.load %arg1[%c26] : memref<?xf32>
      %80 = arith.addf %78, %79 : f32
      memref.store %80, %arg2[%c26] : memref<?xf32>
      %81 = memref.load %arg0[%c27] : memref<?xf32>
      %82 = memref.load %arg1[%c27] : memref<?xf32>
      %83 = arith.addf %81, %82 : f32
      memref.store %83, %arg2[%c27] : memref<?xf32>
      %84 = memref.load %arg0[%c28] : memref<?xf32>
      %85 = memref.load %arg1[%c28] : memref<?xf32>
      %86 = arith.addf %84, %85 : f32
      memref.store %86, %arg2[%c28] : memref<?xf32>
      %87 = memref.load %arg0[%c29] : memref<?xf32>
      %88 = memref.load %arg1[%c29] : memref<?xf32>
      %89 = arith.addf %87, %88 : f32
      memref.store %89, %arg2[%c29] : memref<?xf32>
      %90 = memref.load %arg0[%c30] : memref<?xf32>
      %91 = memref.load %arg1[%c30] : memref<?xf32>
      %92 = arith.addf %90, %91 : f32
      memref.store %92, %arg2[%c30] : memref<?xf32>
      %93 = memref.load %arg0[%c31] : memref<?xf32>
      %94 = memref.load %arg1[%c31] : memref<?xf32>
      %95 = arith.addf %93, %94 : f32
      memref.store %95, %arg2[%c31] : memref<?xf32>
      %96 = memref.load %arg0[%c32] : memref<?xf32>
      %97 = memref.load %arg1[%c32] : memref<?xf32>
      %98 = arith.addf %96, %97 : f32
      memref.store %98, %arg2[%c32] : memref<?xf32>
      %99 = memref.load %arg0[%c33] : memref<?xf32>
      %100 = memref.load %arg1[%c33] : memref<?xf32>
      %101 = arith.addf %99, %100 : f32
      memref.store %101, %arg2[%c33] : memref<?xf32>
      %102 = memref.load %arg0[%c34] : memref<?xf32>
      %103 = memref.load %arg1[%c34] : memref<?xf32>
      %104 = arith.addf %102, %103 : f32
      memref.store %104, %arg2[%c34] : memref<?xf32>
      %105 = memref.load %arg0[%c35] : memref<?xf32>
      %106 = memref.load %arg1[%c35] : memref<?xf32>
      %107 = arith.addf %105, %106 : f32
      memref.store %107, %arg2[%c35] : memref<?xf32>
      %108 = memref.load %arg0[%c36] : memref<?xf32>
      %109 = memref.load %arg1[%c36] : memref<?xf32>
      %110 = arith.addf %108, %109 : f32
      memref.store %110, %arg2[%c36] : memref<?xf32>
      %111 = memref.load %arg0[%c37] : memref<?xf32>
      %112 = memref.load %arg1[%c37] : memref<?xf32>
      %113 = arith.addf %111, %112 : f32
      memref.store %113, %arg2[%c37] : memref<?xf32>
      %114 = memref.load %arg0[%c38] : memref<?xf32>
      %115 = memref.load %arg1[%c38] : memref<?xf32>
      %116 = arith.addf %114, %115 : f32
      memref.store %116, %arg2[%c38] : memref<?xf32>
      %117 = memref.load %arg0[%c39] : memref<?xf32>
      %118 = memref.load %arg1[%c39] : memref<?xf32>
      %119 = arith.addf %117, %118 : f32
      memref.store %119, %arg2[%c39] : memref<?xf32>
      %120 = memref.load %arg0[%c40] : memref<?xf32>
      %121 = memref.load %arg1[%c40] : memref<?xf32>
      %122 = arith.addf %120, %121 : f32
      memref.store %122, %arg2[%c40] : memref<?xf32>
      %123 = memref.load %arg0[%c41] : memref<?xf32>
      %124 = memref.load %arg1[%c41] : memref<?xf32>
      %125 = arith.addf %123, %124 : f32
      memref.store %125, %arg2[%c41] : memref<?xf32>
      %126 = memref.load %arg0[%c42] : memref<?xf32>
      %127 = memref.load %arg1[%c42] : memref<?xf32>
      %128 = arith.addf %126, %127 : f32
      memref.store %128, %arg2[%c42] : memref<?xf32>
      %129 = memref.load %arg0[%c43] : memref<?xf32>
      %130 = memref.load %arg1[%c43] : memref<?xf32>
      %131 = arith.addf %129, %130 : f32
      memref.store %131, %arg2[%c43] : memref<?xf32>
      %132 = memref.load %arg0[%c44] : memref<?xf32>
      %133 = memref.load %arg1[%c44] : memref<?xf32>
      %134 = arith.addf %132, %133 : f32
      memref.store %134, %arg2[%c44] : memref<?xf32>
      %135 = memref.load %arg0[%c45] : memref<?xf32>
      %136 = memref.load %arg1[%c45] : memref<?xf32>
      %137 = arith.addf %135, %136 : f32
      memref.store %137, %arg2[%c45] : memref<?xf32>
      %138 = memref.load %arg0[%c46] : memref<?xf32>
      %139 = memref.load %arg1[%c46] : memref<?xf32>
      %140 = arith.addf %138, %139 : f32
      memref.store %140, %arg2[%c46] : memref<?xf32>
      %141 = memref.load %arg0[%c47] : memref<?xf32>
      %142 = memref.load %arg1[%c47] : memref<?xf32>
      %143 = arith.addf %141, %142 : f32
      memref.store %143, %arg2[%c47] : memref<?xf32>
      %144 = memref.load %arg0[%c48] : memref<?xf32>
      %145 = memref.load %arg1[%c48] : memref<?xf32>
      %146 = arith.addf %144, %145 : f32
      memref.store %146, %arg2[%c48] : memref<?xf32>
      %147 = memref.load %arg0[%c49] : memref<?xf32>
      %148 = memref.load %arg1[%c49] : memref<?xf32>
      %149 = arith.addf %147, %148 : f32
      memref.store %149, %arg2[%c49] : memref<?xf32>
      %150 = memref.load %arg0[%c50] : memref<?xf32>
      %151 = memref.load %arg1[%c50] : memref<?xf32>
      %152 = arith.addf %150, %151 : f32
      memref.store %152, %arg2[%c50] : memref<?xf32>
      %153 = memref.load %arg0[%c51] : memref<?xf32>
      %154 = memref.load %arg1[%c51] : memref<?xf32>
      %155 = arith.addf %153, %154 : f32
      memref.store %155, %arg2[%c51] : memref<?xf32>
      %156 = memref.load %arg0[%c52] : memref<?xf32>
      %157 = memref.load %arg1[%c52] : memref<?xf32>
      %158 = arith.addf %156, %157 : f32
      memref.store %158, %arg2[%c52] : memref<?xf32>
      %159 = memref.load %arg0[%c53] : memref<?xf32>
      %160 = memref.load %arg1[%c53] : memref<?xf32>
      %161 = arith.addf %159, %160 : f32
      memref.store %161, %arg2[%c53] : memref<?xf32>
      %162 = memref.load %arg0[%c54] : memref<?xf32>
      %163 = memref.load %arg1[%c54] : memref<?xf32>
      %164 = arith.addf %162, %163 : f32
      memref.store %164, %arg2[%c54] : memref<?xf32>
      %165 = memref.load %arg0[%c55] : memref<?xf32>
      %166 = memref.load %arg1[%c55] : memref<?xf32>
      %167 = arith.addf %165, %166 : f32
      memref.store %167, %arg2[%c55] : memref<?xf32>
      %168 = memref.load %arg0[%c56] : memref<?xf32>
      %169 = memref.load %arg1[%c56] : memref<?xf32>
      %170 = arith.addf %168, %169 : f32
      memref.store %170, %arg2[%c56] : memref<?xf32>
      %171 = memref.load %arg0[%c57] : memref<?xf32>
      %172 = memref.load %arg1[%c57] : memref<?xf32>
      %173 = arith.addf %171, %172 : f32
      memref.store %173, %arg2[%c57] : memref<?xf32>
      %174 = memref.load %arg0[%c58] : memref<?xf32>
      %175 = memref.load %arg1[%c58] : memref<?xf32>
      %176 = arith.addf %174, %175 : f32
      memref.store %176, %arg2[%c58] : memref<?xf32>
      %177 = memref.load %arg0[%c59] : memref<?xf32>
      %178 = memref.load %arg1[%c59] : memref<?xf32>
      %179 = arith.addf %177, %178 : f32
      memref.store %179, %arg2[%c59] : memref<?xf32>
      %180 = memref.load %arg0[%c60] : memref<?xf32>
      %181 = memref.load %arg1[%c60] : memref<?xf32>
      %182 = arith.addf %180, %181 : f32
      memref.store %182, %arg2[%c60] : memref<?xf32>
      %183 = memref.load %arg0[%c61] : memref<?xf32>
      %184 = memref.load %arg1[%c61] : memref<?xf32>
      %185 = arith.addf %183, %184 : f32
      memref.store %185, %arg2[%c61] : memref<?xf32>
      %186 = memref.load %arg0[%c62] : memref<?xf32>
      %187 = memref.load %arg1[%c62] : memref<?xf32>
      %188 = arith.addf %186, %187 : f32
      memref.store %188, %arg2[%c62] : memref<?xf32>
      %189 = memref.load %arg0[%c63] : memref<?xf32>
      %190 = memref.load %arg1[%c63] : memref<?xf32>
      %191 = arith.addf %189, %190 : f32
      memref.store %191, %arg2[%c63] : memref<?xf32>
      %192 = memref.load %arg0[%c64] : memref<?xf32>
      %193 = memref.load %arg1[%c64] : memref<?xf32>
      %194 = arith.addf %192, %193 : f32
      memref.store %194, %arg2[%c64] : memref<?xf32>
      %195 = memref.load %arg0[%c65] : memref<?xf32>
      %196 = memref.load %arg1[%c65] : memref<?xf32>
      %197 = arith.addf %195, %196 : f32
      memref.store %197, %arg2[%c65] : memref<?xf32>
      %198 = memref.load %arg0[%c66] : memref<?xf32>
      %199 = memref.load %arg1[%c66] : memref<?xf32>
      %200 = arith.addf %198, %199 : f32
      memref.store %200, %arg2[%c66] : memref<?xf32>
      %201 = memref.load %arg0[%c67] : memref<?xf32>
      %202 = memref.load %arg1[%c67] : memref<?xf32>
      %203 = arith.addf %201, %202 : f32
      memref.store %203, %arg2[%c67] : memref<?xf32>
      %204 = memref.load %arg0[%c68] : memref<?xf32>
      %205 = memref.load %arg1[%c68] : memref<?xf32>
      %206 = arith.addf %204, %205 : f32
      memref.store %206, %arg2[%c68] : memref<?xf32>
      %207 = memref.load %arg0[%c69] : memref<?xf32>
      %208 = memref.load %arg1[%c69] : memref<?xf32>
      %209 = arith.addf %207, %208 : f32
      memref.store %209, %arg2[%c69] : memref<?xf32>
      %210 = memref.load %arg0[%c70] : memref<?xf32>
      %211 = memref.load %arg1[%c70] : memref<?xf32>
      %212 = arith.addf %210, %211 : f32
      memref.store %212, %arg2[%c70] : memref<?xf32>
      %213 = memref.load %arg0[%c71] : memref<?xf32>
      %214 = memref.load %arg1[%c71] : memref<?xf32>
      %215 = arith.addf %213, %214 : f32
      memref.store %215, %arg2[%c71] : memref<?xf32>
      %216 = memref.load %arg0[%c72] : memref<?xf32>
      %217 = memref.load %arg1[%c72] : memref<?xf32>
      %218 = arith.addf %216, %217 : f32
      memref.store %218, %arg2[%c72] : memref<?xf32>
      %219 = memref.load %arg0[%c73] : memref<?xf32>
      %220 = memref.load %arg1[%c73] : memref<?xf32>
      %221 = arith.addf %219, %220 : f32
      memref.store %221, %arg2[%c73] : memref<?xf32>
      %222 = memref.load %arg0[%c74] : memref<?xf32>
      %223 = memref.load %arg1[%c74] : memref<?xf32>
      %224 = arith.addf %222, %223 : f32
      memref.store %224, %arg2[%c74] : memref<?xf32>
      %225 = memref.load %arg0[%c75] : memref<?xf32>
      %226 = memref.load %arg1[%c75] : memref<?xf32>
      %227 = arith.addf %225, %226 : f32
      memref.store %227, %arg2[%c75] : memref<?xf32>
      %228 = memref.load %arg0[%c76] : memref<?xf32>
      %229 = memref.load %arg1[%c76] : memref<?xf32>
      %230 = arith.addf %228, %229 : f32
      memref.store %230, %arg2[%c76] : memref<?xf32>
      %231 = memref.load %arg0[%c77] : memref<?xf32>
      %232 = memref.load %arg1[%c77] : memref<?xf32>
      %233 = arith.addf %231, %232 : f32
      memref.store %233, %arg2[%c77] : memref<?xf32>
      %234 = memref.load %arg0[%c78] : memref<?xf32>
      %235 = memref.load %arg1[%c78] : memref<?xf32>
      %236 = arith.addf %234, %235 : f32
      memref.store %236, %arg2[%c78] : memref<?xf32>
      %237 = memref.load %arg0[%c79] : memref<?xf32>
      %238 = memref.load %arg1[%c79] : memref<?xf32>
      %239 = arith.addf %237, %238 : f32
      memref.store %239, %arg2[%c79] : memref<?xf32>
      %240 = memref.load %arg0[%c80] : memref<?xf32>
      %241 = memref.load %arg1[%c80] : memref<?xf32>
      %242 = arith.addf %240, %241 : f32
      memref.store %242, %arg2[%c80] : memref<?xf32>
      %243 = memref.load %arg0[%c81] : memref<?xf32>
      %244 = memref.load %arg1[%c81] : memref<?xf32>
      %245 = arith.addf %243, %244 : f32
      memref.store %245, %arg2[%c81] : memref<?xf32>
      %246 = memref.load %arg0[%c82] : memref<?xf32>
      %247 = memref.load %arg1[%c82] : memref<?xf32>
      %248 = arith.addf %246, %247 : f32
      memref.store %248, %arg2[%c82] : memref<?xf32>
      %249 = memref.load %arg0[%c83] : memref<?xf32>
      %250 = memref.load %arg1[%c83] : memref<?xf32>
      %251 = arith.addf %249, %250 : f32
      memref.store %251, %arg2[%c83] : memref<?xf32>
      %252 = memref.load %arg0[%c84] : memref<?xf32>
      %253 = memref.load %arg1[%c84] : memref<?xf32>
      %254 = arith.addf %252, %253 : f32
      memref.store %254, %arg2[%c84] : memref<?xf32>
      %255 = memref.load %arg0[%c85] : memref<?xf32>
      %256 = memref.load %arg1[%c85] : memref<?xf32>
      %257 = arith.addf %255, %256 : f32
      memref.store %257, %arg2[%c85] : memref<?xf32>
      %258 = memref.load %arg0[%c86] : memref<?xf32>
      %259 = memref.load %arg1[%c86] : memref<?xf32>
      %260 = arith.addf %258, %259 : f32
      memref.store %260, %arg2[%c86] : memref<?xf32>
      %261 = memref.load %arg0[%c87] : memref<?xf32>
      %262 = memref.load %arg1[%c87] : memref<?xf32>
      %263 = arith.addf %261, %262 : f32
      memref.store %263, %arg2[%c87] : memref<?xf32>
      %264 = memref.load %arg0[%c88] : memref<?xf32>
      %265 = memref.load %arg1[%c88] : memref<?xf32>
      %266 = arith.addf %264, %265 : f32
      memref.store %266, %arg2[%c88] : memref<?xf32>
      %267 = memref.load %arg0[%c89] : memref<?xf32>
      %268 = memref.load %arg1[%c89] : memref<?xf32>
      %269 = arith.addf %267, %268 : f32
      memref.store %269, %arg2[%c89] : memref<?xf32>
      %270 = memref.load %arg0[%c90] : memref<?xf32>
      %271 = memref.load %arg1[%c90] : memref<?xf32>
      %272 = arith.addf %270, %271 : f32
      memref.store %272, %arg2[%c90] : memref<?xf32>
      %273 = memref.load %arg0[%c91] : memref<?xf32>
      %274 = memref.load %arg1[%c91] : memref<?xf32>
      %275 = arith.addf %273, %274 : f32
      memref.store %275, %arg2[%c91] : memref<?xf32>
      %276 = memref.load %arg0[%c92] : memref<?xf32>
      %277 = memref.load %arg1[%c92] : memref<?xf32>
      %278 = arith.addf %276, %277 : f32
      memref.store %278, %arg2[%c92] : memref<?xf32>
      %279 = memref.load %arg0[%c93] : memref<?xf32>
      %280 = memref.load %arg1[%c93] : memref<?xf32>
      %281 = arith.addf %279, %280 : f32
      memref.store %281, %arg2[%c93] : memref<?xf32>
      %282 = memref.load %arg0[%c94] : memref<?xf32>
      %283 = memref.load %arg1[%c94] : memref<?xf32>
      %284 = arith.addf %282, %283 : f32
      memref.store %284, %arg2[%c94] : memref<?xf32>
      %285 = memref.load %arg0[%c95] : memref<?xf32>
      %286 = memref.load %arg1[%c95] : memref<?xf32>
      %287 = arith.addf %285, %286 : f32
      memref.store %287, %arg2[%c95] : memref<?xf32>
      %288 = memref.load %arg0[%c96] : memref<?xf32>
      %289 = memref.load %arg1[%c96] : memref<?xf32>
      %290 = arith.addf %288, %289 : f32
      memref.store %290, %arg2[%c96] : memref<?xf32>
      %291 = memref.load %arg0[%c97] : memref<?xf32>
      %292 = memref.load %arg1[%c97] : memref<?xf32>
      %293 = arith.addf %291, %292 : f32
      memref.store %293, %arg2[%c97] : memref<?xf32>
      %294 = memref.load %arg0[%c98] : memref<?xf32>
      %295 = memref.load %arg1[%c98] : memref<?xf32>
      %296 = arith.addf %294, %295 : f32
      memref.store %296, %arg2[%c98] : memref<?xf32>
      %297 = memref.load %arg0[%c99] : memref<?xf32>
      %298 = memref.load %arg1[%c99] : memref<?xf32>
      %299 = arith.addf %297, %298 : f32
      memref.store %299, %arg2[%c99] : memref<?xf32>
      %300 = memref.load %arg0[%c100] : memref<?xf32>
      %301 = memref.load %arg1[%c100] : memref<?xf32>
      %302 = arith.addf %300, %301 : f32
      memref.store %302, %arg2[%c100] : memref<?xf32>
      %303 = memref.load %arg0[%c101] : memref<?xf32>
      %304 = memref.load %arg1[%c101] : memref<?xf32>
      %305 = arith.addf %303, %304 : f32
      memref.store %305, %arg2[%c101] : memref<?xf32>
      %306 = memref.load %arg0[%c102] : memref<?xf32>
      %307 = memref.load %arg1[%c102] : memref<?xf32>
      %308 = arith.addf %306, %307 : f32
      memref.store %308, %arg2[%c102] : memref<?xf32>
      %309 = memref.load %arg0[%c103] : memref<?xf32>
      %310 = memref.load %arg1[%c103] : memref<?xf32>
      %311 = arith.addf %309, %310 : f32
      memref.store %311, %arg2[%c103] : memref<?xf32>
      %312 = memref.load %arg0[%c104] : memref<?xf32>
      %313 = memref.load %arg1[%c104] : memref<?xf32>
      %314 = arith.addf %312, %313 : f32
      memref.store %314, %arg2[%c104] : memref<?xf32>
      %315 = memref.load %arg0[%c105] : memref<?xf32>
      %316 = memref.load %arg1[%c105] : memref<?xf32>
      %317 = arith.addf %315, %316 : f32
      memref.store %317, %arg2[%c105] : memref<?xf32>
      %318 = memref.load %arg0[%c106] : memref<?xf32>
      %319 = memref.load %arg1[%c106] : memref<?xf32>
      %320 = arith.addf %318, %319 : f32
      memref.store %320, %arg2[%c106] : memref<?xf32>
      %321 = memref.load %arg0[%c107] : memref<?xf32>
      %322 = memref.load %arg1[%c107] : memref<?xf32>
      %323 = arith.addf %321, %322 : f32
      memref.store %323, %arg2[%c107] : memref<?xf32>
      %324 = memref.load %arg0[%c108] : memref<?xf32>
      %325 = memref.load %arg1[%c108] : memref<?xf32>
      %326 = arith.addf %324, %325 : f32
      memref.store %326, %arg2[%c108] : memref<?xf32>
      %327 = memref.load %arg0[%c109] : memref<?xf32>
      %328 = memref.load %arg1[%c109] : memref<?xf32>
      %329 = arith.addf %327, %328 : f32
      memref.store %329, %arg2[%c109] : memref<?xf32>
      %330 = memref.load %arg0[%c110] : memref<?xf32>
      %331 = memref.load %arg1[%c110] : memref<?xf32>
      %332 = arith.addf %330, %331 : f32
      memref.store %332, %arg2[%c110] : memref<?xf32>
      %333 = memref.load %arg0[%c111] : memref<?xf32>
      %334 = memref.load %arg1[%c111] : memref<?xf32>
      %335 = arith.addf %333, %334 : f32
      memref.store %335, %arg2[%c111] : memref<?xf32>
      %336 = memref.load %arg0[%c112] : memref<?xf32>
      %337 = memref.load %arg1[%c112] : memref<?xf32>
      %338 = arith.addf %336, %337 : f32
      memref.store %338, %arg2[%c112] : memref<?xf32>
      %339 = memref.load %arg0[%c113] : memref<?xf32>
      %340 = memref.load %arg1[%c113] : memref<?xf32>
      %341 = arith.addf %339, %340 : f32
      memref.store %341, %arg2[%c113] : memref<?xf32>
      %342 = memref.load %arg0[%c114] : memref<?xf32>
      %343 = memref.load %arg1[%c114] : memref<?xf32>
      %344 = arith.addf %342, %343 : f32
      memref.store %344, %arg2[%c114] : memref<?xf32>
      %345 = memref.load %arg0[%c115] : memref<?xf32>
      %346 = memref.load %arg1[%c115] : memref<?xf32>
      %347 = arith.addf %345, %346 : f32
      memref.store %347, %arg2[%c115] : memref<?xf32>
      %348 = memref.load %arg0[%c116] : memref<?xf32>
      %349 = memref.load %arg1[%c116] : memref<?xf32>
      %350 = arith.addf %348, %349 : f32
      memref.store %350, %arg2[%c116] : memref<?xf32>
      %351 = memref.load %arg0[%c117] : memref<?xf32>
      %352 = memref.load %arg1[%c117] : memref<?xf32>
      %353 = arith.addf %351, %352 : f32
      memref.store %353, %arg2[%c117] : memref<?xf32>
      %354 = memref.load %arg0[%c118] : memref<?xf32>
      %355 = memref.load %arg1[%c118] : memref<?xf32>
      %356 = arith.addf %354, %355 : f32
      memref.store %356, %arg2[%c118] : memref<?xf32>
      %357 = memref.load %arg0[%c119] : memref<?xf32>
      %358 = memref.load %arg1[%c119] : memref<?xf32>
      %359 = arith.addf %357, %358 : f32
      memref.store %359, %arg2[%c119] : memref<?xf32>
      %360 = memref.load %arg0[%c120] : memref<?xf32>
      %361 = memref.load %arg1[%c120] : memref<?xf32>
      %362 = arith.addf %360, %361 : f32
      memref.store %362, %arg2[%c120] : memref<?xf32>
      %363 = memref.load %arg0[%c121] : memref<?xf32>
      %364 = memref.load %arg1[%c121] : memref<?xf32>
      %365 = arith.addf %363, %364 : f32
      memref.store %365, %arg2[%c121] : memref<?xf32>
      %366 = memref.load %arg0[%c122] : memref<?xf32>
      %367 = memref.load %arg1[%c122] : memref<?xf32>
      %368 = arith.addf %366, %367 : f32
      memref.store %368, %arg2[%c122] : memref<?xf32>
      %369 = memref.load %arg0[%c123] : memref<?xf32>
      %370 = memref.load %arg1[%c123] : memref<?xf32>
      %371 = arith.addf %369, %370 : f32
      memref.store %371, %arg2[%c123] : memref<?xf32>
      %372 = memref.load %arg0[%c124] : memref<?xf32>
      %373 = memref.load %arg1[%c124] : memref<?xf32>
      %374 = arith.addf %372, %373 : f32
      memref.store %374, %arg2[%c124] : memref<?xf32>
      %375 = memref.load %arg0[%c125] : memref<?xf32>
      %376 = memref.load %arg1[%c125] : memref<?xf32>
      %377 = arith.addf %375, %376 : f32
      memref.store %377, %arg2[%c125] : memref<?xf32>
      %378 = memref.load %arg0[%c126] : memref<?xf32>
      %379 = memref.load %arg1[%c126] : memref<?xf32>
      %380 = arith.addf %378, %379 : f32
      memref.store %380, %arg2[%c126] : memref<?xf32>
      %381 = memref.load %arg0[%c127] : memref<?xf32>
      %382 = memref.load %arg1[%c127] : memref<?xf32>
      %383 = arith.addf %381, %382 : f32
      memref.store %383, %arg2[%c127] : memref<?xf32>
      %384 = memref.load %arg0[%c128] : memref<?xf32>
      %385 = memref.load %arg1[%c128] : memref<?xf32>
      %386 = arith.addf %384, %385 : f32
      memref.store %386, %arg2[%c128] : memref<?xf32>
      %387 = memref.load %arg0[%c129] : memref<?xf32>
      %388 = memref.load %arg1[%c129] : memref<?xf32>
      %389 = arith.addf %387, %388 : f32
      memref.store %389, %arg2[%c129] : memref<?xf32>
      %390 = memref.load %arg0[%c130] : memref<?xf32>
      %391 = memref.load %arg1[%c130] : memref<?xf32>
      %392 = arith.addf %390, %391 : f32
      memref.store %392, %arg2[%c130] : memref<?xf32>
      %393 = memref.load %arg0[%c131] : memref<?xf32>
      %394 = memref.load %arg1[%c131] : memref<?xf32>
      %395 = arith.addf %393, %394 : f32
      memref.store %395, %arg2[%c131] : memref<?xf32>
      %396 = memref.load %arg0[%c132] : memref<?xf32>
      %397 = memref.load %arg1[%c132] : memref<?xf32>
      %398 = arith.addf %396, %397 : f32
      memref.store %398, %arg2[%c132] : memref<?xf32>
      %399 = memref.load %arg0[%c133] : memref<?xf32>
      %400 = memref.load %arg1[%c133] : memref<?xf32>
      %401 = arith.addf %399, %400 : f32
      memref.store %401, %arg2[%c133] : memref<?xf32>
      %402 = memref.load %arg0[%c134] : memref<?xf32>
      %403 = memref.load %arg1[%c134] : memref<?xf32>
      %404 = arith.addf %402, %403 : f32
      memref.store %404, %arg2[%c134] : memref<?xf32>
      %405 = memref.load %arg0[%c135] : memref<?xf32>
      %406 = memref.load %arg1[%c135] : memref<?xf32>
      %407 = arith.addf %405, %406 : f32
      memref.store %407, %arg2[%c135] : memref<?xf32>
      %408 = memref.load %arg0[%c136] : memref<?xf32>
      %409 = memref.load %arg1[%c136] : memref<?xf32>
      %410 = arith.addf %408, %409 : f32
      memref.store %410, %arg2[%c136] : memref<?xf32>
      %411 = memref.load %arg0[%c137] : memref<?xf32>
      %412 = memref.load %arg1[%c137] : memref<?xf32>
      %413 = arith.addf %411, %412 : f32
      memref.store %413, %arg2[%c137] : memref<?xf32>
      %414 = memref.load %arg0[%c138] : memref<?xf32>
      %415 = memref.load %arg1[%c138] : memref<?xf32>
      %416 = arith.addf %414, %415 : f32
      memref.store %416, %arg2[%c138] : memref<?xf32>
      %417 = memref.load %arg0[%c139] : memref<?xf32>
      %418 = memref.load %arg1[%c139] : memref<?xf32>
      %419 = arith.addf %417, %418 : f32
      memref.store %419, %arg2[%c139] : memref<?xf32>
      %420 = memref.load %arg0[%c140] : memref<?xf32>
      %421 = memref.load %arg1[%c140] : memref<?xf32>
      %422 = arith.addf %420, %421 : f32
      memref.store %422, %arg2[%c140] : memref<?xf32>
      %423 = memref.load %arg0[%c141] : memref<?xf32>
      %424 = memref.load %arg1[%c141] : memref<?xf32>
      %425 = arith.addf %423, %424 : f32
      memref.store %425, %arg2[%c141] : memref<?xf32>
      %426 = memref.load %arg0[%c142] : memref<?xf32>
      %427 = memref.load %arg1[%c142] : memref<?xf32>
      %428 = arith.addf %426, %427 : f32
      memref.store %428, %arg2[%c142] : memref<?xf32>
      %429 = memref.load %arg0[%c143] : memref<?xf32>
      %430 = memref.load %arg1[%c143] : memref<?xf32>
      %431 = arith.addf %429, %430 : f32
      memref.store %431, %arg2[%c143] : memref<?xf32>
      %432 = memref.load %arg0[%c144] : memref<?xf32>
      %433 = memref.load %arg1[%c144] : memref<?xf32>
      %434 = arith.addf %432, %433 : f32
      memref.store %434, %arg2[%c144] : memref<?xf32>
      %435 = memref.load %arg0[%c145] : memref<?xf32>
      %436 = memref.load %arg1[%c145] : memref<?xf32>
      %437 = arith.addf %435, %436 : f32
      memref.store %437, %arg2[%c145] : memref<?xf32>
      %438 = memref.load %arg0[%c146] : memref<?xf32>
      %439 = memref.load %arg1[%c146] : memref<?xf32>
      %440 = arith.addf %438, %439 : f32
      memref.store %440, %arg2[%c146] : memref<?xf32>
      %441 = memref.load %arg0[%c147] : memref<?xf32>
      %442 = memref.load %arg1[%c147] : memref<?xf32>
      %443 = arith.addf %441, %442 : f32
      memref.store %443, %arg2[%c147] : memref<?xf32>
      %444 = memref.load %arg0[%c148] : memref<?xf32>
      %445 = memref.load %arg1[%c148] : memref<?xf32>
      %446 = arith.addf %444, %445 : f32
      memref.store %446, %arg2[%c148] : memref<?xf32>
      %447 = memref.load %arg0[%c149] : memref<?xf32>
      %448 = memref.load %arg1[%c149] : memref<?xf32>
      %449 = arith.addf %447, %448 : f32
      memref.store %449, %arg2[%c149] : memref<?xf32>
      %450 = memref.load %arg0[%c150] : memref<?xf32>
      %451 = memref.load %arg1[%c150] : memref<?xf32>
      %452 = arith.addf %450, %451 : f32
      memref.store %452, %arg2[%c150] : memref<?xf32>
      %453 = memref.load %arg0[%c151] : memref<?xf32>
      %454 = memref.load %arg1[%c151] : memref<?xf32>
      %455 = arith.addf %453, %454 : f32
      memref.store %455, %arg2[%c151] : memref<?xf32>
      %456 = memref.load %arg0[%c152] : memref<?xf32>
      %457 = memref.load %arg1[%c152] : memref<?xf32>
      %458 = arith.addf %456, %457 : f32
      memref.store %458, %arg2[%c152] : memref<?xf32>
      %459 = memref.load %arg0[%c153] : memref<?xf32>
      %460 = memref.load %arg1[%c153] : memref<?xf32>
      %461 = arith.addf %459, %460 : f32
      memref.store %461, %arg2[%c153] : memref<?xf32>
      %462 = memref.load %arg0[%c154] : memref<?xf32>
      %463 = memref.load %arg1[%c154] : memref<?xf32>
      %464 = arith.addf %462, %463 : f32
      memref.store %464, %arg2[%c154] : memref<?xf32>
      %465 = memref.load %arg0[%c155] : memref<?xf32>
      %466 = memref.load %arg1[%c155] : memref<?xf32>
      %467 = arith.addf %465, %466 : f32
      memref.store %467, %arg2[%c155] : memref<?xf32>
      %468 = memref.load %arg0[%c156] : memref<?xf32>
      %469 = memref.load %arg1[%c156] : memref<?xf32>
      %470 = arith.addf %468, %469 : f32
      memref.store %470, %arg2[%c156] : memref<?xf32>
      %471 = memref.load %arg0[%c157] : memref<?xf32>
      %472 = memref.load %arg1[%c157] : memref<?xf32>
      %473 = arith.addf %471, %472 : f32
      memref.store %473, %arg2[%c157] : memref<?xf32>
      %474 = memref.load %arg0[%c158] : memref<?xf32>
      %475 = memref.load %arg1[%c158] : memref<?xf32>
      %476 = arith.addf %474, %475 : f32
      memref.store %476, %arg2[%c158] : memref<?xf32>
      %477 = memref.load %arg0[%c159] : memref<?xf32>
      %478 = memref.load %arg1[%c159] : memref<?xf32>
      %479 = arith.addf %477, %478 : f32
      memref.store %479, %arg2[%c159] : memref<?xf32>
      %480 = memref.load %arg0[%c160] : memref<?xf32>
      %481 = memref.load %arg1[%c160] : memref<?xf32>
      %482 = arith.addf %480, %481 : f32
      memref.store %482, %arg2[%c160] : memref<?xf32>
      %483 = memref.load %arg0[%c161] : memref<?xf32>
      %484 = memref.load %arg1[%c161] : memref<?xf32>
      %485 = arith.addf %483, %484 : f32
      memref.store %485, %arg2[%c161] : memref<?xf32>
      %486 = memref.load %arg0[%c162] : memref<?xf32>
      %487 = memref.load %arg1[%c162] : memref<?xf32>
      %488 = arith.addf %486, %487 : f32
      memref.store %488, %arg2[%c162] : memref<?xf32>
      %489 = memref.load %arg0[%c163] : memref<?xf32>
      %490 = memref.load %arg1[%c163] : memref<?xf32>
      %491 = arith.addf %489, %490 : f32
      memref.store %491, %arg2[%c163] : memref<?xf32>
      %492 = memref.load %arg0[%c164] : memref<?xf32>
      %493 = memref.load %arg1[%c164] : memref<?xf32>
      %494 = arith.addf %492, %493 : f32
      memref.store %494, %arg2[%c164] : memref<?xf32>
      %495 = memref.load %arg0[%c165] : memref<?xf32>
      %496 = memref.load %arg1[%c165] : memref<?xf32>
      %497 = arith.addf %495, %496 : f32
      memref.store %497, %arg2[%c165] : memref<?xf32>
      %498 = memref.load %arg0[%c166] : memref<?xf32>
      %499 = memref.load %arg1[%c166] : memref<?xf32>
      %500 = arith.addf %498, %499 : f32
      memref.store %500, %arg2[%c166] : memref<?xf32>
      %501 = memref.load %arg0[%c167] : memref<?xf32>
      %502 = memref.load %arg1[%c167] : memref<?xf32>
      %503 = arith.addf %501, %502 : f32
      memref.store %503, %arg2[%c167] : memref<?xf32>
      %504 = memref.load %arg0[%c168] : memref<?xf32>
      %505 = memref.load %arg1[%c168] : memref<?xf32>
      %506 = arith.addf %504, %505 : f32
      memref.store %506, %arg2[%c168] : memref<?xf32>
      %507 = memref.load %arg0[%c169] : memref<?xf32>
      %508 = memref.load %arg1[%c169] : memref<?xf32>
      %509 = arith.addf %507, %508 : f32
      memref.store %509, %arg2[%c169] : memref<?xf32>
      %510 = memref.load %arg0[%c170] : memref<?xf32>
      %511 = memref.load %arg1[%c170] : memref<?xf32>
      %512 = arith.addf %510, %511 : f32
      memref.store %512, %arg2[%c170] : memref<?xf32>
      %513 = memref.load %arg0[%c171] : memref<?xf32>
      %514 = memref.load %arg1[%c171] : memref<?xf32>
      %515 = arith.addf %513, %514 : f32
      memref.store %515, %arg2[%c171] : memref<?xf32>
      %516 = memref.load %arg0[%c172] : memref<?xf32>
      %517 = memref.load %arg1[%c172] : memref<?xf32>
      %518 = arith.addf %516, %517 : f32
      memref.store %518, %arg2[%c172] : memref<?xf32>
      %519 = memref.load %arg0[%c173] : memref<?xf32>
      %520 = memref.load %arg1[%c173] : memref<?xf32>
      %521 = arith.addf %519, %520 : f32
      memref.store %521, %arg2[%c173] : memref<?xf32>
      %522 = memref.load %arg0[%c174] : memref<?xf32>
      %523 = memref.load %arg1[%c174] : memref<?xf32>
      %524 = arith.addf %522, %523 : f32
      memref.store %524, %arg2[%c174] : memref<?xf32>
      %525 = memref.load %arg0[%c175] : memref<?xf32>
      %526 = memref.load %arg1[%c175] : memref<?xf32>
      %527 = arith.addf %525, %526 : f32
      memref.store %527, %arg2[%c175] : memref<?xf32>
      %528 = memref.load %arg0[%c176] : memref<?xf32>
      %529 = memref.load %arg1[%c176] : memref<?xf32>
      %530 = arith.addf %528, %529 : f32
      memref.store %530, %arg2[%c176] : memref<?xf32>
      %531 = memref.load %arg0[%c177] : memref<?xf32>
      %532 = memref.load %arg1[%c177] : memref<?xf32>
      %533 = arith.addf %531, %532 : f32
      memref.store %533, %arg2[%c177] : memref<?xf32>
      %534 = memref.load %arg0[%c178] : memref<?xf32>
      %535 = memref.load %arg1[%c178] : memref<?xf32>
      %536 = arith.addf %534, %535 : f32
      memref.store %536, %arg2[%c178] : memref<?xf32>
      %537 = memref.load %arg0[%c179] : memref<?xf32>
      %538 = memref.load %arg1[%c179] : memref<?xf32>
      %539 = arith.addf %537, %538 : f32
      memref.store %539, %arg2[%c179] : memref<?xf32>
      %540 = memref.load %arg0[%c180] : memref<?xf32>
      %541 = memref.load %arg1[%c180] : memref<?xf32>
      %542 = arith.addf %540, %541 : f32
      memref.store %542, %arg2[%c180] : memref<?xf32>
      %543 = memref.load %arg0[%c181] : memref<?xf32>
      %544 = memref.load %arg1[%c181] : memref<?xf32>
      %545 = arith.addf %543, %544 : f32
      memref.store %545, %arg2[%c181] : memref<?xf32>
      %546 = memref.load %arg0[%c182] : memref<?xf32>
      %547 = memref.load %arg1[%c182] : memref<?xf32>
      %548 = arith.addf %546, %547 : f32
      memref.store %548, %arg2[%c182] : memref<?xf32>
      %549 = memref.load %arg0[%c183] : memref<?xf32>
      %550 = memref.load %arg1[%c183] : memref<?xf32>
      %551 = arith.addf %549, %550 : f32
      memref.store %551, %arg2[%c183] : memref<?xf32>
      %552 = memref.load %arg0[%c184] : memref<?xf32>
      %553 = memref.load %arg1[%c184] : memref<?xf32>
      %554 = arith.addf %552, %553 : f32
      memref.store %554, %arg2[%c184] : memref<?xf32>
      %555 = memref.load %arg0[%c185] : memref<?xf32>
      %556 = memref.load %arg1[%c185] : memref<?xf32>
      %557 = arith.addf %555, %556 : f32
      memref.store %557, %arg2[%c185] : memref<?xf32>
      %558 = memref.load %arg0[%c186] : memref<?xf32>
      %559 = memref.load %arg1[%c186] : memref<?xf32>
      %560 = arith.addf %558, %559 : f32
      memref.store %560, %arg2[%c186] : memref<?xf32>
      %561 = memref.load %arg0[%c187] : memref<?xf32>
      %562 = memref.load %arg1[%c187] : memref<?xf32>
      %563 = arith.addf %561, %562 : f32
      memref.store %563, %arg2[%c187] : memref<?xf32>
      %564 = memref.load %arg0[%c188] : memref<?xf32>
      %565 = memref.load %arg1[%c188] : memref<?xf32>
      %566 = arith.addf %564, %565 : f32
      memref.store %566, %arg2[%c188] : memref<?xf32>
      %567 = memref.load %arg0[%c189] : memref<?xf32>
      %568 = memref.load %arg1[%c189] : memref<?xf32>
      %569 = arith.addf %567, %568 : f32
      memref.store %569, %arg2[%c189] : memref<?xf32>
      %570 = memref.load %arg0[%c190] : memref<?xf32>
      %571 = memref.load %arg1[%c190] : memref<?xf32>
      %572 = arith.addf %570, %571 : f32
      memref.store %572, %arg2[%c190] : memref<?xf32>
      %573 = memref.load %arg0[%c191] : memref<?xf32>
      %574 = memref.load %arg1[%c191] : memref<?xf32>
      %575 = arith.addf %573, %574 : f32
      memref.store %575, %arg2[%c191] : memref<?xf32>
      %576 = memref.load %arg0[%c192] : memref<?xf32>
      %577 = memref.load %arg1[%c192] : memref<?xf32>
      %578 = arith.addf %576, %577 : f32
      memref.store %578, %arg2[%c192] : memref<?xf32>
      %579 = memref.load %arg0[%c193] : memref<?xf32>
      %580 = memref.load %arg1[%c193] : memref<?xf32>
      %581 = arith.addf %579, %580 : f32
      memref.store %581, %arg2[%c193] : memref<?xf32>
      %582 = memref.load %arg0[%c194] : memref<?xf32>
      %583 = memref.load %arg1[%c194] : memref<?xf32>
      %584 = arith.addf %582, %583 : f32
      memref.store %584, %arg2[%c194] : memref<?xf32>
      %585 = memref.load %arg0[%c195] : memref<?xf32>
      %586 = memref.load %arg1[%c195] : memref<?xf32>
      %587 = arith.addf %585, %586 : f32
      memref.store %587, %arg2[%c195] : memref<?xf32>
      %588 = memref.load %arg0[%c196] : memref<?xf32>
      %589 = memref.load %arg1[%c196] : memref<?xf32>
      %590 = arith.addf %588, %589 : f32
      memref.store %590, %arg2[%c196] : memref<?xf32>
      %591 = memref.load %arg0[%c197] : memref<?xf32>
      %592 = memref.load %arg1[%c197] : memref<?xf32>
      %593 = arith.addf %591, %592 : f32
      memref.store %593, %arg2[%c197] : memref<?xf32>
      %594 = memref.load %arg0[%c198] : memref<?xf32>
      %595 = memref.load %arg1[%c198] : memref<?xf32>
      %596 = arith.addf %594, %595 : f32
      memref.store %596, %arg2[%c198] : memref<?xf32>
      %597 = memref.load %arg0[%c199] : memref<?xf32>
      %598 = memref.load %arg1[%c199] : memref<?xf32>
      %599 = arith.addf %597, %598 : f32
      memref.store %599, %arg2[%c199] : memref<?xf32>
      return
    }
  } {sym_name = "matadd_0"}
}
