#map = affine_map<()[s0] -> (s0 * 256)>
#map1 = affine_map<()[s0] -> (s0 * 256 + 64)>
#map2 = affine_map<()[s0] -> (s0 * 256 + 128)>
#map3 = affine_map<()[s0] -> (s0 * 256 + 192)>
#set = affine_set<()[s0, s1] : (s0 == 0, s1 >= 0, -s1 + 3 >= 0)>
#set1 = affine_set<()[s0, s1] : (s0 - 1 == 0, s1 >= 0, -s1 + 3 >= 0)>
#set2 = affine_set<()[s0, s1] : (s0 - 2 == 0, s1 >= 0, -s1 + 3 >= 0)>
#set3 = affine_set<()[s0, s1] : (s0 >= 0, -s0 + 3 >= 0, s1 == 0)>
#set4 = affine_set<()[s0, s1] : (s0 >= 0, -s0 + 3 >= 0, s1 - 1 == 0)>
#set5 = affine_set<()[s0, s1] : (s0 >= 0, -s0 + 3 >= 0, s1 - 2 == 0)>
module {
  aie.device(npu1_4col) {
    %tile_3_0 = aie.tile(3, 0)
    %tile_2_0 = aie.tile(2, 0)
    %tile_1_0 = aie.tile(1, 0)
    %tile_0_0 = aie.tile(0, 0)
    %tile_0_1 = aie.tile(0, 1)
    %tile_1_1 = aie.tile(1, 1)
    %tile_2_1 = aie.tile(2, 1)
    %tile_3_1 = aie.tile(3, 1)
    %tile_0_2 = aie.tile(0, 2)
    %tile_1_2 = aie.tile(1, 2)
    %tile_2_2 = aie.tile(2, 2)
    %tile_3_2 = aie.tile(3, 2)
    %tile_0_3 = aie.tile(0, 3)
    %tile_1_3 = aie.tile(1, 3)
    %tile_2_3 = aie.tile(2, 3)
    %tile_3_3 = aie.tile(3, 3)
    %tile_0_4 = aie.tile(0, 4)
    %tile_1_4 = aie.tile(1, 4)
    %tile_2_4 = aie.tile(2, 4)
    %tile_3_4 = aie.tile(3, 4)
    %tile_0_5 = aie.tile(0, 5)
    %tile_1_5 = aie.tile(1, 5)
    %tile_2_5 = aie.tile(2, 5)
    %tile_3_5 = aie.tile(3, 5)
    %lock_3_1 = aie.lock(%tile_3_1, 9) {init = 4 : i32}
    %lock_3_1_0 = aie.lock(%tile_3_1, 8) {init = 0 : i32}
    %lock_3_1_1 = aie.lock(%tile_3_1, 7) {init = 1 : i32}
    %lock_3_1_2 = aie.lock(%tile_3_1, 6) {init = 0 : i32}
    %lock_3_1_3 = aie.lock(%tile_3_1, 5) {init = 1 : i32}
    %lock_3_1_4 = aie.lock(%tile_3_1, 4) {init = 0 : i32}
    %lock_3_1_5 = aie.lock(%tile_3_1, 3) {init = 1 : i32}
    %lock_3_1_6 = aie.lock(%tile_3_1, 2) {init = 0 : i32}
    %lock_3_1_7 = aie.lock(%tile_3_1, 1) {init = 1 : i32}
    %lock_3_1_8 = aie.lock(%tile_3_1, 0) {init = 0 : i32}
    %lock_2_1 = aie.lock(%tile_2_1, 9) {init = 4 : i32}
    %lock_2_1_9 = aie.lock(%tile_2_1, 8) {init = 0 : i32}
    %lock_2_1_10 = aie.lock(%tile_2_1, 7) {init = 1 : i32}
    %lock_2_1_11 = aie.lock(%tile_2_1, 6) {init = 0 : i32}
    %lock_2_1_12 = aie.lock(%tile_2_1, 5) {init = 1 : i32}
    %lock_2_1_13 = aie.lock(%tile_2_1, 4) {init = 0 : i32}
    %lock_2_1_14 = aie.lock(%tile_2_1, 3) {init = 1 : i32}
    %lock_2_1_15 = aie.lock(%tile_2_1, 2) {init = 0 : i32}
    %lock_2_1_16 = aie.lock(%tile_2_1, 1) {init = 1 : i32}
    %lock_2_1_17 = aie.lock(%tile_2_1, 0) {init = 0 : i32}
    %lock_1_1 = aie.lock(%tile_1_1, 9) {init = 4 : i32}
    %lock_1_1_18 = aie.lock(%tile_1_1, 8) {init = 0 : i32}
    %lock_1_1_19 = aie.lock(%tile_1_1, 7) {init = 1 : i32}
    %lock_1_1_20 = aie.lock(%tile_1_1, 6) {init = 0 : i32}
    %lock_1_1_21 = aie.lock(%tile_1_1, 5) {init = 1 : i32}
    %lock_1_1_22 = aie.lock(%tile_1_1, 4) {init = 0 : i32}
    %lock_1_1_23 = aie.lock(%tile_1_1, 3) {init = 1 : i32}
    %lock_1_1_24 = aie.lock(%tile_1_1, 2) {init = 0 : i32}
    %lock_1_1_25 = aie.lock(%tile_1_1, 1) {init = 1 : i32}
    %lock_1_1_26 = aie.lock(%tile_1_1, 0) {init = 0 : i32}
    %lock_0_1 = aie.lock(%tile_0_1, 9) {init = 4 : i32}
    %lock_0_1_27 = aie.lock(%tile_0_1, 8) {init = 0 : i32}
    %lock_0_1_28 = aie.lock(%tile_0_1, 7) {init = 1 : i32}
    %lock_0_1_29 = aie.lock(%tile_0_1, 6) {init = 0 : i32}
    %lock_0_1_30 = aie.lock(%tile_0_1, 5) {init = 1 : i32}
    %lock_0_1_31 = aie.lock(%tile_0_1, 4) {init = 0 : i32}
    %lock_0_1_32 = aie.lock(%tile_0_1, 3) {init = 1 : i32}
    %lock_0_1_33 = aie.lock(%tile_0_1, 2) {init = 0 : i32}
    %lock_0_1_34 = aie.lock(%tile_0_1, 1) {init = 1 : i32}
    %lock_0_1_35 = aie.lock(%tile_0_1, 0) {init = 0 : i32}
    %lock_0_2 = aie.lock(%tile_0_2, 5) {init = 2 : i32}
    %lock_0_2_36 = aie.lock(%tile_0_2, 4) {init = 0 : i32}
    %lock_0_2_37 = aie.lock(%tile_0_2, 3) {init = 2 : i32}
    %lock_0_2_38 = aie.lock(%tile_0_2, 2) {init = 0 : i32}
    %lock_0_2_39 = aie.lock(%tile_0_2, 1) {init = 1 : i32}
    %lock_0_2_40 = aie.lock(%tile_0_2, 0) {init = 0 : i32}
    %lock_1_2 = aie.lock(%tile_1_2, 5) {init = 2 : i32}
    %lock_1_2_41 = aie.lock(%tile_1_2, 4) {init = 0 : i32}
    %lock_1_2_42 = aie.lock(%tile_1_2, 3) {init = 2 : i32}
    %lock_1_2_43 = aie.lock(%tile_1_2, 2) {init = 0 : i32}
    %lock_1_2_44 = aie.lock(%tile_1_2, 1) {init = 1 : i32}
    %lock_1_2_45 = aie.lock(%tile_1_2, 0) {init = 0 : i32}
    %lock_2_2 = aie.lock(%tile_2_2, 5) {init = 2 : i32}
    %lock_2_2_46 = aie.lock(%tile_2_2, 4) {init = 0 : i32}
    %lock_2_2_47 = aie.lock(%tile_2_2, 3) {init = 2 : i32}
    %lock_2_2_48 = aie.lock(%tile_2_2, 2) {init = 0 : i32}
    %lock_2_2_49 = aie.lock(%tile_2_2, 1) {init = 1 : i32}
    %lock_2_2_50 = aie.lock(%tile_2_2, 0) {init = 0 : i32}
    %lock_3_2 = aie.lock(%tile_3_2, 5) {init = 2 : i32}
    %lock_3_2_51 = aie.lock(%tile_3_2, 4) {init = 0 : i32}
    %lock_3_2_52 = aie.lock(%tile_3_2, 3) {init = 2 : i32}
    %lock_3_2_53 = aie.lock(%tile_3_2, 2) {init = 0 : i32}
    %lock_3_2_54 = aie.lock(%tile_3_2, 1) {init = 1 : i32}
    %lock_3_2_55 = aie.lock(%tile_3_2, 0) {init = 0 : i32}
    %lock_0_3 = aie.lock(%tile_0_3, 5) {init = 2 : i32}
    %lock_0_3_56 = aie.lock(%tile_0_3, 4) {init = 0 : i32}
    %lock_0_3_57 = aie.lock(%tile_0_3, 3) {init = 2 : i32}
    %lock_0_3_58 = aie.lock(%tile_0_3, 2) {init = 0 : i32}
    %lock_0_3_59 = aie.lock(%tile_0_3, 1) {init = 1 : i32}
    %lock_0_3_60 = aie.lock(%tile_0_3, 0) {init = 0 : i32}
    %lock_1_3 = aie.lock(%tile_1_3, 5) {init = 2 : i32}
    %lock_1_3_61 = aie.lock(%tile_1_3, 4) {init = 0 : i32}
    %lock_1_3_62 = aie.lock(%tile_1_3, 3) {init = 2 : i32}
    %lock_1_3_63 = aie.lock(%tile_1_3, 2) {init = 0 : i32}
    %lock_1_3_64 = aie.lock(%tile_1_3, 1) {init = 1 : i32}
    %lock_1_3_65 = aie.lock(%tile_1_3, 0) {init = 0 : i32}
    %lock_2_3 = aie.lock(%tile_2_3, 5) {init = 2 : i32}
    %lock_2_3_66 = aie.lock(%tile_2_3, 4) {init = 0 : i32}
    %lock_2_3_67 = aie.lock(%tile_2_3, 3) {init = 2 : i32}
    %lock_2_3_68 = aie.lock(%tile_2_3, 2) {init = 0 : i32}
    %lock_2_3_69 = aie.lock(%tile_2_3, 1) {init = 1 : i32}
    %lock_2_3_70 = aie.lock(%tile_2_3, 0) {init = 0 : i32}
    %lock_3_3 = aie.lock(%tile_3_3, 5) {init = 2 : i32}
    %lock_3_3_71 = aie.lock(%tile_3_3, 4) {init = 0 : i32}
    %lock_3_3_72 = aie.lock(%tile_3_3, 3) {init = 2 : i32}
    %lock_3_3_73 = aie.lock(%tile_3_3, 2) {init = 0 : i32}
    %lock_3_3_74 = aie.lock(%tile_3_3, 1) {init = 1 : i32}
    %lock_3_3_75 = aie.lock(%tile_3_3, 0) {init = 0 : i32}
    %lock_0_4 = aie.lock(%tile_0_4, 5) {init = 2 : i32}
    %lock_0_4_76 = aie.lock(%tile_0_4, 4) {init = 0 : i32}
    %lock_0_4_77 = aie.lock(%tile_0_4, 3) {init = 2 : i32}
    %lock_0_4_78 = aie.lock(%tile_0_4, 2) {init = 0 : i32}
    %lock_0_4_79 = aie.lock(%tile_0_4, 1) {init = 1 : i32}
    %lock_0_4_80 = aie.lock(%tile_0_4, 0) {init = 0 : i32}
    %lock_1_4 = aie.lock(%tile_1_4, 5) {init = 2 : i32}
    %lock_1_4_81 = aie.lock(%tile_1_4, 4) {init = 0 : i32}
    %lock_1_4_82 = aie.lock(%tile_1_4, 3) {init = 2 : i32}
    %lock_1_4_83 = aie.lock(%tile_1_4, 2) {init = 0 : i32}
    %lock_1_4_84 = aie.lock(%tile_1_4, 1) {init = 1 : i32}
    %lock_1_4_85 = aie.lock(%tile_1_4, 0) {init = 0 : i32}
    %lock_2_4 = aie.lock(%tile_2_4, 5) {init = 2 : i32}
    %lock_2_4_86 = aie.lock(%tile_2_4, 4) {init = 0 : i32}
    %lock_2_4_87 = aie.lock(%tile_2_4, 3) {init = 2 : i32}
    %lock_2_4_88 = aie.lock(%tile_2_4, 2) {init = 0 : i32}
    %lock_2_4_89 = aie.lock(%tile_2_4, 1) {init = 1 : i32}
    %lock_2_4_90 = aie.lock(%tile_2_4, 0) {init = 0 : i32}
    %lock_3_4 = aie.lock(%tile_3_4, 5) {init = 2 : i32}
    %lock_3_4_91 = aie.lock(%tile_3_4, 4) {init = 0 : i32}
    %lock_3_4_92 = aie.lock(%tile_3_4, 3) {init = 2 : i32}
    %lock_3_4_93 = aie.lock(%tile_3_4, 2) {init = 0 : i32}
    %lock_3_4_94 = aie.lock(%tile_3_4, 1) {init = 1 : i32}
    %lock_3_4_95 = aie.lock(%tile_3_4, 0) {init = 0 : i32}
    %lock_0_5 = aie.lock(%tile_0_5, 5) {init = 2 : i32}
    %lock_0_5_96 = aie.lock(%tile_0_5, 4) {init = 0 : i32}
    %lock_0_5_97 = aie.lock(%tile_0_5, 3) {init = 2 : i32}
    %lock_0_5_98 = aie.lock(%tile_0_5, 2) {init = 0 : i32}
    %lock_0_5_99 = aie.lock(%tile_0_5, 1) {init = 1 : i32}
    %lock_0_5_100 = aie.lock(%tile_0_5, 0) {init = 0 : i32}
    %lock_1_5 = aie.lock(%tile_1_5, 5) {init = 2 : i32}
    %lock_1_5_101 = aie.lock(%tile_1_5, 4) {init = 0 : i32}
    %lock_1_5_102 = aie.lock(%tile_1_5, 3) {init = 2 : i32}
    %lock_1_5_103 = aie.lock(%tile_1_5, 2) {init = 0 : i32}
    %lock_1_5_104 = aie.lock(%tile_1_5, 1) {init = 1 : i32}
    %lock_1_5_105 = aie.lock(%tile_1_5, 0) {init = 0 : i32}
    %lock_2_5 = aie.lock(%tile_2_5, 5) {init = 2 : i32}
    %lock_2_5_106 = aie.lock(%tile_2_5, 4) {init = 0 : i32}
    %lock_2_5_107 = aie.lock(%tile_2_5, 3) {init = 2 : i32}
    %lock_2_5_108 = aie.lock(%tile_2_5, 2) {init = 0 : i32}
    %lock_2_5_109 = aie.lock(%tile_2_5, 1) {init = 1 : i32}
    %lock_2_5_110 = aie.lock(%tile_2_5, 0) {init = 0 : i32}
    %lock_3_5 = aie.lock(%tile_3_5, 5) {init = 2 : i32}
    %lock_3_5_111 = aie.lock(%tile_3_5, 4) {init = 0 : i32}
    %lock_3_5_112 = aie.lock(%tile_3_5, 3) {init = 2 : i32}
    %lock_3_5_113 = aie.lock(%tile_3_5, 2) {init = 0 : i32}
    %lock_3_5_114 = aie.lock(%tile_3_5, 1) {init = 1 : i32}
    %lock_3_5_115 = aie.lock(%tile_3_5, 0) {init = 0 : i32}
    %buf99 = aie.buffer(%tile_0_1) {sym_name = "buf99"} : memref<64x256xbf16, 1> 
    %buf98 = aie.buffer(%tile_1_1) {sym_name = "buf98"} : memref<64x256xbf16, 1> 
    %buf97 = aie.buffer(%tile_2_1) {sym_name = "buf97"} : memref<64x256xbf16, 1> 
    %buf96 = aie.buffer(%tile_3_1) {sym_name = "buf96"} : memref<64x256xbf16, 1> 
    %buf95 = aie.buffer(%tile_0_1) {sym_name = "buf95"} : memref<256x64xbf16, 1> 
    %buf94 = aie.buffer(%tile_1_1) {sym_name = "buf94"} : memref<256x64xbf16, 1> 
    %buf93 = aie.buffer(%tile_2_1) {sym_name = "buf93"} : memref<256x64xbf16, 1> 
    %buf92 = aie.buffer(%tile_3_1) {sym_name = "buf92"} : memref<256x64xbf16, 1> 
    %buf91 = aie.buffer(%tile_0_1) {sym_name = "buf91"} : memref<64x256xbf16, 1> 
    %buf90 = aie.buffer(%tile_1_1) {sym_name = "buf90"} : memref<64x256xbf16, 1> 
    %buf89 = aie.buffer(%tile_2_1) {sym_name = "buf89"} : memref<64x256xbf16, 1> 
    %buf88 = aie.buffer(%tile_3_1) {sym_name = "buf88"} : memref<64x256xbf16, 1> 
    %buf87 = aie.buffer(%tile_0_1) {sym_name = "buf87"} : memref<256x64xbf16, 1> 
    %buf86 = aie.buffer(%tile_1_1) {sym_name = "buf86"} : memref<256x64xbf16, 1> 
    %buf85 = aie.buffer(%tile_2_1) {sym_name = "buf85"} : memref<256x64xbf16, 1> 
    %buf84 = aie.buffer(%tile_3_1) {sym_name = "buf84"} : memref<256x64xbf16, 1> 
    %buf83 = aie.buffer(%tile_0_1) {sym_name = "buf83"} : memref<64x256xbf16, 1> 
    %buf82 = aie.buffer(%tile_1_1) {sym_name = "buf82"} : memref<64x256xbf16, 1> 
    %buf81 = aie.buffer(%tile_3_1) {sym_name = "buf81"} : memref<64x256xbf16, 1> 
    %buf80 = aie.buffer(%tile_2_1) {sym_name = "buf80"} : memref<64x256xbf16, 1> 
    %buf79 = aie.buffer(%tile_3_5) {sym_name = "buf79"} : memref<16x16x4x4xbf16, 2> 
    %buf78 = aie.buffer(%tile_3_5) {sym_name = "buf78"} : memref<16x8x8x4xbf16, 2> 
    %buf77 = aie.buffer(%tile_3_5) {sym_name = "buf77"} : memref<8x16x4x8xbf16, 2> 
    %buf76 = aie.buffer(%tile_3_5) {sym_name = "buf76"} : memref<8x16x4x8xbf16, 2> 
    %buf75 = aie.buffer(%tile_3_5) {sym_name = "buf75"} : memref<16x8x8x4xbf16, 2> 
    %buf74 = aie.buffer(%tile_2_5) {sym_name = "buf74"} : memref<16x16x4x4xbf16, 2> 
    %buf73 = aie.buffer(%tile_2_5) {sym_name = "buf73"} : memref<16x8x8x4xbf16, 2> 
    %buf72 = aie.buffer(%tile_2_5) {sym_name = "buf72"} : memref<8x16x4x8xbf16, 2> 
    %buf71 = aie.buffer(%tile_2_5) {sym_name = "buf71"} : memref<8x16x4x8xbf16, 2> 
    %buf70 = aie.buffer(%tile_2_5) {sym_name = "buf70"} : memref<16x8x8x4xbf16, 2> 
    %buf69 = aie.buffer(%tile_1_5) {sym_name = "buf69"} : memref<16x16x4x4xbf16, 2> 
    %buf68 = aie.buffer(%tile_1_5) {sym_name = "buf68"} : memref<16x8x8x4xbf16, 2> 
    %buf67 = aie.buffer(%tile_1_5) {sym_name = "buf67"} : memref<8x16x4x8xbf16, 2> 
    %buf66 = aie.buffer(%tile_1_5) {sym_name = "buf66"} : memref<8x16x4x8xbf16, 2> 
    %buf65 = aie.buffer(%tile_1_5) {sym_name = "buf65"} : memref<16x8x8x4xbf16, 2> 
    %buf64 = aie.buffer(%tile_0_5) {sym_name = "buf64"} : memref<16x16x4x4xbf16, 2> 
    %buf63 = aie.buffer(%tile_0_5) {sym_name = "buf63"} : memref<16x8x8x4xbf16, 2> 
    %buf62 = aie.buffer(%tile_0_5) {sym_name = "buf62"} : memref<8x16x4x8xbf16, 2> 
    %buf61 = aie.buffer(%tile_0_5) {sym_name = "buf61"} : memref<8x16x4x8xbf16, 2> 
    %buf60 = aie.buffer(%tile_0_5) {sym_name = "buf60"} : memref<16x8x8x4xbf16, 2> 
    %buf59 = aie.buffer(%tile_3_4) {sym_name = "buf59"} : memref<16x16x4x4xbf16, 2> 
    %buf58 = aie.buffer(%tile_3_4) {sym_name = "buf58"} : memref<16x8x8x4xbf16, 2> 
    %buf57 = aie.buffer(%tile_3_4) {sym_name = "buf57"} : memref<8x16x4x8xbf16, 2> 
    %buf56 = aie.buffer(%tile_3_4) {sym_name = "buf56"} : memref<8x16x4x8xbf16, 2> 
    %buf55 = aie.buffer(%tile_3_4) {sym_name = "buf55"} : memref<16x8x8x4xbf16, 2> 
    %buf54 = aie.buffer(%tile_2_4) {sym_name = "buf54"} : memref<16x16x4x4xbf16, 2> 
    %buf53 = aie.buffer(%tile_2_4) {sym_name = "buf53"} : memref<16x8x8x4xbf16, 2> 
    %buf52 = aie.buffer(%tile_2_4) {sym_name = "buf52"} : memref<8x16x4x8xbf16, 2> 
    %buf51 = aie.buffer(%tile_2_4) {sym_name = "buf51"} : memref<8x16x4x8xbf16, 2> 
    %buf50 = aie.buffer(%tile_2_4) {sym_name = "buf50"} : memref<16x8x8x4xbf16, 2> 
    %buf49 = aie.buffer(%tile_1_4) {sym_name = "buf49"} : memref<16x16x4x4xbf16, 2> 
    %buf48 = aie.buffer(%tile_1_4) {sym_name = "buf48"} : memref<16x8x8x4xbf16, 2> 
    %buf47 = aie.buffer(%tile_1_4) {sym_name = "buf47"} : memref<8x16x4x8xbf16, 2> 
    %buf46 = aie.buffer(%tile_1_4) {sym_name = "buf46"} : memref<8x16x4x8xbf16, 2> 
    %buf45 = aie.buffer(%tile_1_4) {sym_name = "buf45"} : memref<16x8x8x4xbf16, 2> 
    %buf44 = aie.buffer(%tile_0_4) {sym_name = "buf44"} : memref<16x16x4x4xbf16, 2> 
    %buf43 = aie.buffer(%tile_0_4) {sym_name = "buf43"} : memref<16x8x8x4xbf16, 2> 
    %buf42 = aie.buffer(%tile_0_4) {sym_name = "buf42"} : memref<8x16x4x8xbf16, 2> 
    %buf41 = aie.buffer(%tile_0_4) {sym_name = "buf41"} : memref<8x16x4x8xbf16, 2> 
    %buf40 = aie.buffer(%tile_0_4) {sym_name = "buf40"} : memref<16x8x8x4xbf16, 2> 
    %buf39 = aie.buffer(%tile_3_3) {sym_name = "buf39"} : memref<16x16x4x4xbf16, 2> 
    %buf38 = aie.buffer(%tile_3_3) {sym_name = "buf38"} : memref<16x8x8x4xbf16, 2> 
    %buf37 = aie.buffer(%tile_3_3) {sym_name = "buf37"} : memref<8x16x4x8xbf16, 2> 
    %buf36 = aie.buffer(%tile_3_3) {sym_name = "buf36"} : memref<8x16x4x8xbf16, 2> 
    %buf35 = aie.buffer(%tile_3_3) {sym_name = "buf35"} : memref<16x8x8x4xbf16, 2> 
    %buf34 = aie.buffer(%tile_2_3) {sym_name = "buf34"} : memref<16x16x4x4xbf16, 2> 
    %buf33 = aie.buffer(%tile_2_3) {sym_name = "buf33"} : memref<16x8x8x4xbf16, 2> 
    %buf32 = aie.buffer(%tile_2_3) {sym_name = "buf32"} : memref<8x16x4x8xbf16, 2> 
    %buf31 = aie.buffer(%tile_2_3) {sym_name = "buf31"} : memref<8x16x4x8xbf16, 2> 
    %buf30 = aie.buffer(%tile_2_3) {sym_name = "buf30"} : memref<16x8x8x4xbf16, 2> 
    %buf29 = aie.buffer(%tile_1_3) {sym_name = "buf29"} : memref<16x16x4x4xbf16, 2> 
    %buf28 = aie.buffer(%tile_1_3) {sym_name = "buf28"} : memref<16x8x8x4xbf16, 2> 
    %buf27 = aie.buffer(%tile_1_3) {sym_name = "buf27"} : memref<8x16x4x8xbf16, 2> 
    %buf26 = aie.buffer(%tile_1_3) {sym_name = "buf26"} : memref<8x16x4x8xbf16, 2> 
    %buf25 = aie.buffer(%tile_1_3) {sym_name = "buf25"} : memref<16x8x8x4xbf16, 2> 
    %buf24 = aie.buffer(%tile_0_3) {sym_name = "buf24"} : memref<16x16x4x4xbf16, 2> 
    %buf23 = aie.buffer(%tile_0_3) {sym_name = "buf23"} : memref<16x8x8x4xbf16, 2> 
    %buf22 = aie.buffer(%tile_0_3) {sym_name = "buf22"} : memref<8x16x4x8xbf16, 2> 
    %buf21 = aie.buffer(%tile_0_3) {sym_name = "buf21"} : memref<8x16x4x8xbf16, 2> 
    %buf20 = aie.buffer(%tile_0_3) {sym_name = "buf20"} : memref<16x8x8x4xbf16, 2> 
    %buf19 = aie.buffer(%tile_3_2) {sym_name = "buf19"} : memref<16x16x4x4xbf16, 2> 
    %buf18 = aie.buffer(%tile_3_2) {sym_name = "buf18"} : memref<16x8x8x4xbf16, 2> 
    %buf17 = aie.buffer(%tile_3_2) {sym_name = "buf17"} : memref<8x16x4x8xbf16, 2> 
    %buf16 = aie.buffer(%tile_3_2) {sym_name = "buf16"} : memref<8x16x4x8xbf16, 2> 
    %buf15 = aie.buffer(%tile_3_2) {sym_name = "buf15"} : memref<16x8x8x4xbf16, 2> 
    %buf14 = aie.buffer(%tile_2_2) {sym_name = "buf14"} : memref<16x16x4x4xbf16, 2> 
    %buf13 = aie.buffer(%tile_2_2) {sym_name = "buf13"} : memref<16x8x8x4xbf16, 2> 
    %buf12 = aie.buffer(%tile_2_2) {sym_name = "buf12"} : memref<8x16x4x8xbf16, 2> 
    %buf11 = aie.buffer(%tile_2_2) {sym_name = "buf11"} : memref<8x16x4x8xbf16, 2> 
    %buf10 = aie.buffer(%tile_2_2) {sym_name = "buf10"} : memref<16x8x8x4xbf16, 2> 
    %buf9 = aie.buffer(%tile_1_2) {sym_name = "buf9"} : memref<16x16x4x4xbf16, 2> 
    %buf8 = aie.buffer(%tile_1_2) {sym_name = "buf8"} : memref<16x8x8x4xbf16, 2> 
    %buf7 = aie.buffer(%tile_1_2) {sym_name = "buf7"} : memref<8x16x4x8xbf16, 2> 
    %buf6 = aie.buffer(%tile_1_2) {sym_name = "buf6"} : memref<8x16x4x8xbf16, 2> 
    %buf5 = aie.buffer(%tile_1_2) {sym_name = "buf5"} : memref<16x8x8x4xbf16, 2> 
    %buf4 = aie.buffer(%tile_0_2) {sym_name = "buf4"} : memref<16x16x4x4xbf16, 2> 
    %buf3 = aie.buffer(%tile_0_2) {sym_name = "buf3"} : memref<16x8x8x4xbf16, 2> 
    %buf2 = aie.buffer(%tile_0_2) {sym_name = "buf2"} : memref<8x16x4x8xbf16, 2> 
    %buf1 = aie.buffer(%tile_0_2) {sym_name = "buf1"} : memref<8x16x4x8xbf16, 2> 
    %buf0 = aie.buffer(%tile_0_2) {sym_name = "buf0"} : memref<16x8x8x4xbf16, 2> 
    %mem_3_5 = aie.mem(%tile_3_5) {
      %0 = aie.dma_start(S2MM, 0, ^bb1, ^bb7)
    ^bb1:  // 2 preds: ^bb0, ^bb2
      aie.use_lock(%lock_3_5_112, AcquireGreaterEqual, 1)
      aie.dma_bd(%buf76 : memref<8x16x4x8xbf16, 2>, 0, 4096) {task_id = 0 : i32}
      aie.use_lock(%lock_3_5_113, Release, 1)
      aie.next_bd ^bb2
    ^bb2:  // pred: ^bb1
      aie.use_lock(%lock_3_5_112, AcquireGreaterEqual, 1)
      aie.dma_bd(%buf77 : memref<8x16x4x8xbf16, 2>, 0, 4096) {task_id = 0 : i32}
      aie.use_lock(%lock_3_5_113, Release, 1)
      aie.next_bd ^bb1
    ^bb3:  // pred: ^bb4
      aie.end
    ^bb4:  // pred: ^bb7
      %1 = aie.dma_start(S2MM, 1, ^bb5, ^bb3)
    ^bb5:  // 2 preds: ^bb4, ^bb6
      aie.use_lock(%lock_3_5, AcquireGreaterEqual, 1)
      aie.dma_bd(%buf75 : memref<16x8x8x4xbf16, 2>, 0, 4096) {task_id = 0 : i32}
      aie.use_lock(%lock_3_5_111, Release, 1)
      aie.next_bd ^bb6
    ^bb6:  // pred: ^bb5
      aie.use_lock(%lock_3_5, AcquireGreaterEqual, 1)
      aie.dma_bd(%buf78 : memref<16x8x8x4xbf16, 2>, 0, 4096) {task_id = 0 : i32}
      aie.use_lock(%lock_3_5_111, Release, 1)
      aie.next_bd ^bb5
    ^bb7:  // pred: ^bb0
      %2 = aie.dma_start(MM2S, 0, ^bb8, ^bb4)
    ^bb8:  // 2 preds: ^bb7, ^bb8
      aie.use_lock(%lock_3_5_115, AcquireGreaterEqual, 1)
      aie.dma_bd(%buf79 : memref<16x16x4x4xbf16, 2>, 0, 4096, [<size = 64, stride = 4>, <size = 16, stride = 256>, <size = 4, stride = 1>]) {task_id = 0 : i32}
      aie.use_lock(%lock_3_5_114, Release, 1)
      aie.next_bd ^bb8
    }
    %core_3_5 = aie.core(%tile_3_5) {
      %c128 = arith.constant 128 : index
      %c0 = arith.constant 0 : index
      %cst = arith.constant 0.000000e+00 : bf16
      %c16 = arith.constant 16 : index
      cf.br ^bb1
    ^bb1:  // 2 preds: ^bb0, ^bb1
      aie.use_lock(%lock_3_5_114, AcquireGreaterEqual, 1)
      func.call @linalg_fill_bf16_view16x16x4x4xbf16as2(%cst, %buf79) : (bf16, memref<16x16x4x4xbf16, 2>) -> ()
      scf.for %arg0 = %c0 to %c128 step %c16 {
        aie.use_lock(%lock_3_5_113, AcquireGreaterEqual, 1)
        aie.use_lock(%lock_3_5_111, AcquireGreaterEqual, 1)
        func.call @matmul_bf16_bf16(%buf76, %buf75, %buf79) : (memref<8x16x4x8xbf16, 2>, memref<16x8x8x4xbf16, 2>, memref<16x16x4x4xbf16, 2>) -> ()
        aie.use_lock(%lock_3_5_112, Release, 1)
        aie.use_lock(%lock_3_5, Release, 1)
        aie.use_lock(%lock_3_5_113, AcquireGreaterEqual, 1)
        aie.use_lock(%lock_3_5_111, AcquireGreaterEqual, 1)
        func.call @matmul_bf16_bf16(%buf77, %buf78, %buf79) : (memref<8x16x4x8xbf16, 2>, memref<16x8x8x4xbf16, 2>, memref<16x16x4x4xbf16, 2>) -> ()
        aie.use_lock(%lock_3_5_112, Release, 1)
        aie.use_lock(%lock_3_5, Release, 1)
      }
      aie.use_lock(%lock_3_5_115, Release, 1)
      cf.br ^bb1
    } {elf_file = "matmul_bf16_0_core_3_5.elf", link_with = "mm.o"}
    %mem_2_5 = aie.mem(%tile_2_5) {
      %0 = aie.dma_start(S2MM, 0, ^bb1, ^bb7)
    ^bb1:  // 2 preds: ^bb0, ^bb2
      aie.use_lock(%lock_2_5_107, AcquireGreaterEqual, 1)
      aie.dma_bd(%buf71 : memref<8x16x4x8xbf16, 2>, 0, 4096) {task_id = 0 : i32}
      aie.use_lock(%lock_2_5_108, Release, 1)
      aie.next_bd ^bb2
    ^bb2:  // pred: ^bb1
      aie.use_lock(%lock_2_5_107, AcquireGreaterEqual, 1)
      aie.dma_bd(%buf72 : memref<8x16x4x8xbf16, 2>, 0, 4096) {task_id = 0 : i32}
      aie.use_lock(%lock_2_5_108, Release, 1)
      aie.next_bd ^bb1
    ^bb3:  // pred: ^bb4
      aie.end
    ^bb4:  // pred: ^bb7
      %1 = aie.dma_start(S2MM, 1, ^bb5, ^bb3)
    ^bb5:  // 2 preds: ^bb4, ^bb6
      aie.use_lock(%lock_2_5, AcquireGreaterEqual, 1)
      aie.dma_bd(%buf70 : memref<16x8x8x4xbf16, 2>, 0, 4096) {task_id = 0 : i32}
      aie.use_lock(%lock_2_5_106, Release, 1)
      aie.next_bd ^bb6
    ^bb6:  // pred: ^bb5
      aie.use_lock(%lock_2_5, AcquireGreaterEqual, 1)
      aie.dma_bd(%buf73 : memref<16x8x8x4xbf16, 2>, 0, 4096) {task_id = 0 : i32}
      aie.use_lock(%lock_2_5_106, Release, 1)
      aie.next_bd ^bb5
    ^bb7:  // pred: ^bb0
      %2 = aie.dma_start(MM2S, 0, ^bb8, ^bb4)
    ^bb8:  // 2 preds: ^bb7, ^bb8
      aie.use_lock(%lock_2_5_110, AcquireGreaterEqual, 1)
      aie.dma_bd(%buf74 : memref<16x16x4x4xbf16, 2>, 0, 4096, [<size = 64, stride = 4>, <size = 16, stride = 256>, <size = 4, stride = 1>]) {task_id = 0 : i32}
      aie.use_lock(%lock_2_5_109, Release, 1)
      aie.next_bd ^bb8
    }
    %core_2_5 = aie.core(%tile_2_5) {
      %c128 = arith.constant 128 : index
      %c0 = arith.constant 0 : index
      %cst = arith.constant 0.000000e+00 : bf16
      %c16 = arith.constant 16 : index
      cf.br ^bb1
    ^bb1:  // 2 preds: ^bb0, ^bb1
      aie.use_lock(%lock_2_5_109, AcquireGreaterEqual, 1)
      func.call @linalg_fill_bf16_view16x16x4x4xbf16as2(%cst, %buf74) : (bf16, memref<16x16x4x4xbf16, 2>) -> ()
      scf.for %arg0 = %c0 to %c128 step %c16 {
        aie.use_lock(%lock_2_5_108, AcquireGreaterEqual, 1)
        aie.use_lock(%lock_2_5_106, AcquireGreaterEqual, 1)
        func.call @matmul_bf16_bf16(%buf71, %buf70, %buf74) : (memref<8x16x4x8xbf16, 2>, memref<16x8x8x4xbf16, 2>, memref<16x16x4x4xbf16, 2>) -> ()
        aie.use_lock(%lock_2_5_107, Release, 1)
        aie.use_lock(%lock_2_5, Release, 1)
        aie.use_lock(%lock_2_5_108, AcquireGreaterEqual, 1)
        aie.use_lock(%lock_2_5_106, AcquireGreaterEqual, 1)
        func.call @matmul_bf16_bf16(%buf72, %buf73, %buf74) : (memref<8x16x4x8xbf16, 2>, memref<16x8x8x4xbf16, 2>, memref<16x16x4x4xbf16, 2>) -> ()
        aie.use_lock(%lock_2_5_107, Release, 1)
        aie.use_lock(%lock_2_5, Release, 1)
      }
      aie.use_lock(%lock_2_5_110, Release, 1)
      cf.br ^bb1
    } {elf_file = "matmul_bf16_0_core_2_5.elf", link_with = "mm.o"}
    %mem_1_5 = aie.mem(%tile_1_5) {
      %0 = aie.dma_start(S2MM, 0, ^bb1, ^bb7)
    ^bb1:  // 2 preds: ^bb0, ^bb2
      aie.use_lock(%lock_1_5_102, AcquireGreaterEqual, 1)
      aie.dma_bd(%buf66 : memref<8x16x4x8xbf16, 2>, 0, 4096) {task_id = 0 : i32}
      aie.use_lock(%lock_1_5_103, Release, 1)
      aie.next_bd ^bb2
    ^bb2:  // pred: ^bb1
      aie.use_lock(%lock_1_5_102, AcquireGreaterEqual, 1)
      aie.dma_bd(%buf67 : memref<8x16x4x8xbf16, 2>, 0, 4096) {task_id = 0 : i32}
      aie.use_lock(%lock_1_5_103, Release, 1)
      aie.next_bd ^bb1
    ^bb3:  // pred: ^bb4
      aie.end
    ^bb4:  // pred: ^bb7
      %1 = aie.dma_start(S2MM, 1, ^bb5, ^bb3)
    ^bb5:  // 2 preds: ^bb4, ^bb6
      aie.use_lock(%lock_1_5, AcquireGreaterEqual, 1)
      aie.dma_bd(%buf65 : memref<16x8x8x4xbf16, 2>, 0, 4096) {task_id = 0 : i32}
      aie.use_lock(%lock_1_5_101, Release, 1)
      aie.next_bd ^bb6
    ^bb6:  // pred: ^bb5
      aie.use_lock(%lock_1_5, AcquireGreaterEqual, 1)
      aie.dma_bd(%buf68 : memref<16x8x8x4xbf16, 2>, 0, 4096) {task_id = 0 : i32}
      aie.use_lock(%lock_1_5_101, Release, 1)
      aie.next_bd ^bb5
    ^bb7:  // pred: ^bb0
      %2 = aie.dma_start(MM2S, 0, ^bb8, ^bb4)
    ^bb8:  // 2 preds: ^bb7, ^bb8
      aie.use_lock(%lock_1_5_105, AcquireGreaterEqual, 1)
      aie.dma_bd(%buf69 : memref<16x16x4x4xbf16, 2>, 0, 4096, [<size = 64, stride = 4>, <size = 16, stride = 256>, <size = 4, stride = 1>]) {task_id = 0 : i32}
      aie.use_lock(%lock_1_5_104, Release, 1)
      aie.next_bd ^bb8
    }
    %core_1_5 = aie.core(%tile_1_5) {
      %c128 = arith.constant 128 : index
      %c0 = arith.constant 0 : index
      %cst = arith.constant 0.000000e+00 : bf16
      %c16 = arith.constant 16 : index
      cf.br ^bb1
    ^bb1:  // 2 preds: ^bb0, ^bb1
      aie.use_lock(%lock_1_5_104, AcquireGreaterEqual, 1)
      func.call @linalg_fill_bf16_view16x16x4x4xbf16as2(%cst, %buf69) : (bf16, memref<16x16x4x4xbf16, 2>) -> ()
      scf.for %arg0 = %c0 to %c128 step %c16 {
        aie.use_lock(%lock_1_5_103, AcquireGreaterEqual, 1)
        aie.use_lock(%lock_1_5_101, AcquireGreaterEqual, 1)
        func.call @matmul_bf16_bf16(%buf66, %buf65, %buf69) : (memref<8x16x4x8xbf16, 2>, memref<16x8x8x4xbf16, 2>, memref<16x16x4x4xbf16, 2>) -> ()
        aie.use_lock(%lock_1_5_102, Release, 1)
        aie.use_lock(%lock_1_5, Release, 1)
        aie.use_lock(%lock_1_5_103, AcquireGreaterEqual, 1)
        aie.use_lock(%lock_1_5_101, AcquireGreaterEqual, 1)
        func.call @matmul_bf16_bf16(%buf67, %buf68, %buf69) : (memref<8x16x4x8xbf16, 2>, memref<16x8x8x4xbf16, 2>, memref<16x16x4x4xbf16, 2>) -> ()
        aie.use_lock(%lock_1_5_102, Release, 1)
        aie.use_lock(%lock_1_5, Release, 1)
      }
      aie.use_lock(%lock_1_5_105, Release, 1)
      cf.br ^bb1
    } {elf_file = "matmul_bf16_0_core_1_5.elf", link_with = "mm.o"}
    %mem_0_5 = aie.mem(%tile_0_5) {
      %0 = aie.dma_start(S2MM, 0, ^bb1, ^bb7)
    ^bb1:  // 2 preds: ^bb0, ^bb2
      aie.use_lock(%lock_0_5_97, AcquireGreaterEqual, 1)
      aie.dma_bd(%buf61 : memref<8x16x4x8xbf16, 2>, 0, 4096) {task_id = 0 : i32}
      aie.use_lock(%lock_0_5_98, Release, 1)
      aie.next_bd ^bb2
    ^bb2:  // pred: ^bb1
      aie.use_lock(%lock_0_5_97, AcquireGreaterEqual, 1)
      aie.dma_bd(%buf62 : memref<8x16x4x8xbf16, 2>, 0, 4096) {task_id = 0 : i32}
      aie.use_lock(%lock_0_5_98, Release, 1)
      aie.next_bd ^bb1
    ^bb3:  // pred: ^bb4
      aie.end
    ^bb4:  // pred: ^bb7
      %1 = aie.dma_start(S2MM, 1, ^bb5, ^bb3)
    ^bb5:  // 2 preds: ^bb4, ^bb6
      aie.use_lock(%lock_0_5, AcquireGreaterEqual, 1)
      aie.dma_bd(%buf60 : memref<16x8x8x4xbf16, 2>, 0, 4096) {task_id = 0 : i32}
      aie.use_lock(%lock_0_5_96, Release, 1)
      aie.next_bd ^bb6
    ^bb6:  // pred: ^bb5
      aie.use_lock(%lock_0_5, AcquireGreaterEqual, 1)
      aie.dma_bd(%buf63 : memref<16x8x8x4xbf16, 2>, 0, 4096) {task_id = 0 : i32}
      aie.use_lock(%lock_0_5_96, Release, 1)
      aie.next_bd ^bb5
    ^bb7:  // pred: ^bb0
      %2 = aie.dma_start(MM2S, 0, ^bb8, ^bb4)
    ^bb8:  // 2 preds: ^bb7, ^bb8
      aie.use_lock(%lock_0_5_100, AcquireGreaterEqual, 1)
      aie.dma_bd(%buf64 : memref<16x16x4x4xbf16, 2>, 0, 4096, [<size = 64, stride = 4>, <size = 16, stride = 256>, <size = 4, stride = 1>]) {task_id = 0 : i32}
      aie.use_lock(%lock_0_5_99, Release, 1)
      aie.next_bd ^bb8
    }
    %core_0_5 = aie.core(%tile_0_5) {
      %c128 = arith.constant 128 : index
      %cst = arith.constant 0.000000e+00 : bf16
      %c16 = arith.constant 16 : index
      %c0 = arith.constant 0 : index
      cf.br ^bb1
    ^bb1:  // 2 preds: ^bb0, ^bb1
      aie.use_lock(%lock_0_5_99, AcquireGreaterEqual, 1)
      func.call @linalg_fill_bf16_view16x16x4x4xbf16as2(%cst, %buf64) : (bf16, memref<16x16x4x4xbf16, 2>) -> ()
      scf.for %arg0 = %c0 to %c128 step %c16 {
        aie.use_lock(%lock_0_5_98, AcquireGreaterEqual, 1)
        aie.use_lock(%lock_0_5_96, AcquireGreaterEqual, 1)
        func.call @matmul_bf16_bf16(%buf61, %buf60, %buf64) : (memref<8x16x4x8xbf16, 2>, memref<16x8x8x4xbf16, 2>, memref<16x16x4x4xbf16, 2>) -> ()
        aie.use_lock(%lock_0_5_97, Release, 1)
        aie.use_lock(%lock_0_5, Release, 1)
        aie.use_lock(%lock_0_5_98, AcquireGreaterEqual, 1)
        aie.use_lock(%lock_0_5_96, AcquireGreaterEqual, 1)
        func.call @matmul_bf16_bf16(%buf62, %buf63, %buf64) : (memref<8x16x4x8xbf16, 2>, memref<16x8x8x4xbf16, 2>, memref<16x16x4x4xbf16, 2>) -> ()
        aie.use_lock(%lock_0_5_97, Release, 1)
        aie.use_lock(%lock_0_5, Release, 1)
      }
      aie.use_lock(%lock_0_5_100, Release, 1)
      cf.br ^bb1
    } {elf_file = "matmul_bf16_0_core_0_5.elf", link_with = "mm.o"}
    %mem_3_4 = aie.mem(%tile_3_4) {
      %0 = aie.dma_start(S2MM, 0, ^bb1, ^bb7)
    ^bb1:  // 2 preds: ^bb0, ^bb2
      aie.use_lock(%lock_3_4_92, AcquireGreaterEqual, 1)
      aie.dma_bd(%buf56 : memref<8x16x4x8xbf16, 2>, 0, 4096) {task_id = 0 : i32}
      aie.use_lock(%lock_3_4_93, Release, 1)
      aie.next_bd ^bb2
    ^bb2:  // pred: ^bb1
      aie.use_lock(%lock_3_4_92, AcquireGreaterEqual, 1)
      aie.dma_bd(%buf57 : memref<8x16x4x8xbf16, 2>, 0, 4096) {task_id = 0 : i32}
      aie.use_lock(%lock_3_4_93, Release, 1)
      aie.next_bd ^bb1
    ^bb3:  // pred: ^bb4
      aie.end
    ^bb4:  // pred: ^bb7
      %1 = aie.dma_start(S2MM, 1, ^bb5, ^bb3)
    ^bb5:  // 2 preds: ^bb4, ^bb6
      aie.use_lock(%lock_3_4, AcquireGreaterEqual, 1)
      aie.dma_bd(%buf55 : memref<16x8x8x4xbf16, 2>, 0, 4096) {task_id = 0 : i32}
      aie.use_lock(%lock_3_4_91, Release, 1)
      aie.next_bd ^bb6
    ^bb6:  // pred: ^bb5
      aie.use_lock(%lock_3_4, AcquireGreaterEqual, 1)
      aie.dma_bd(%buf58 : memref<16x8x8x4xbf16, 2>, 0, 4096) {task_id = 0 : i32}
      aie.use_lock(%lock_3_4_91, Release, 1)
      aie.next_bd ^bb5
    ^bb7:  // pred: ^bb0
      %2 = aie.dma_start(MM2S, 0, ^bb8, ^bb4)
    ^bb8:  // 2 preds: ^bb7, ^bb8
      aie.use_lock(%lock_3_4_95, AcquireGreaterEqual, 1)
      aie.dma_bd(%buf59 : memref<16x16x4x4xbf16, 2>, 0, 4096, [<size = 64, stride = 4>, <size = 16, stride = 256>, <size = 4, stride = 1>]) {task_id = 0 : i32}
      aie.use_lock(%lock_3_4_94, Release, 1)
      aie.next_bd ^bb8
    }
    %core_3_4 = aie.core(%tile_3_4) {
      %c128 = arith.constant 128 : index
      %c0 = arith.constant 0 : index
      %cst = arith.constant 0.000000e+00 : bf16
      %c16 = arith.constant 16 : index
      cf.br ^bb1
    ^bb1:  // 2 preds: ^bb0, ^bb1
      aie.use_lock(%lock_3_4_94, AcquireGreaterEqual, 1)
      func.call @linalg_fill_bf16_view16x16x4x4xbf16as2(%cst, %buf59) : (bf16, memref<16x16x4x4xbf16, 2>) -> ()
      scf.for %arg0 = %c0 to %c128 step %c16 {
        aie.use_lock(%lock_3_4_93, AcquireGreaterEqual, 1)
        aie.use_lock(%lock_3_4_91, AcquireGreaterEqual, 1)
        func.call @matmul_bf16_bf16(%buf56, %buf55, %buf59) : (memref<8x16x4x8xbf16, 2>, memref<16x8x8x4xbf16, 2>, memref<16x16x4x4xbf16, 2>) -> ()
        aie.use_lock(%lock_3_4_92, Release, 1)
        aie.use_lock(%lock_3_4, Release, 1)
        aie.use_lock(%lock_3_4_93, AcquireGreaterEqual, 1)
        aie.use_lock(%lock_3_4_91, AcquireGreaterEqual, 1)
        func.call @matmul_bf16_bf16(%buf57, %buf58, %buf59) : (memref<8x16x4x8xbf16, 2>, memref<16x8x8x4xbf16, 2>, memref<16x16x4x4xbf16, 2>) -> ()
        aie.use_lock(%lock_3_4_92, Release, 1)
        aie.use_lock(%lock_3_4, Release, 1)
      }
      aie.use_lock(%lock_3_4_95, Release, 1)
      cf.br ^bb1
    } {elf_file = "matmul_bf16_0_core_3_4.elf", link_with = "mm.o"}
    %mem_2_4 = aie.mem(%tile_2_4) {
      %0 = aie.dma_start(S2MM, 0, ^bb1, ^bb7)
    ^bb1:  // 2 preds: ^bb0, ^bb2
      aie.use_lock(%lock_2_4_87, AcquireGreaterEqual, 1)
      aie.dma_bd(%buf51 : memref<8x16x4x8xbf16, 2>, 0, 4096) {task_id = 0 : i32}
      aie.use_lock(%lock_2_4_88, Release, 1)
      aie.next_bd ^bb2
    ^bb2:  // pred: ^bb1
      aie.use_lock(%lock_2_4_87, AcquireGreaterEqual, 1)
      aie.dma_bd(%buf52 : memref<8x16x4x8xbf16, 2>, 0, 4096) {task_id = 0 : i32}
      aie.use_lock(%lock_2_4_88, Release, 1)
      aie.next_bd ^bb1
    ^bb3:  // pred: ^bb4
      aie.end
    ^bb4:  // pred: ^bb7
      %1 = aie.dma_start(S2MM, 1, ^bb5, ^bb3)
    ^bb5:  // 2 preds: ^bb4, ^bb6
      aie.use_lock(%lock_2_4, AcquireGreaterEqual, 1)
      aie.dma_bd(%buf50 : memref<16x8x8x4xbf16, 2>, 0, 4096) {task_id = 0 : i32}
      aie.use_lock(%lock_2_4_86, Release, 1)
      aie.next_bd ^bb6
    ^bb6:  // pred: ^bb5
      aie.use_lock(%lock_2_4, AcquireGreaterEqual, 1)
      aie.dma_bd(%buf53 : memref<16x8x8x4xbf16, 2>, 0, 4096) {task_id = 0 : i32}
      aie.use_lock(%lock_2_4_86, Release, 1)
      aie.next_bd ^bb5
    ^bb7:  // pred: ^bb0
      %2 = aie.dma_start(MM2S, 0, ^bb8, ^bb4)
    ^bb8:  // 2 preds: ^bb7, ^bb8
      aie.use_lock(%lock_2_4_90, AcquireGreaterEqual, 1)
      aie.dma_bd(%buf54 : memref<16x16x4x4xbf16, 2>, 0, 4096, [<size = 64, stride = 4>, <size = 16, stride = 256>, <size = 4, stride = 1>]) {task_id = 0 : i32}
      aie.use_lock(%lock_2_4_89, Release, 1)
      aie.next_bd ^bb8
    }
    %core_2_4 = aie.core(%tile_2_4) {
      %c128 = arith.constant 128 : index
      %c0 = arith.constant 0 : index
      %cst = arith.constant 0.000000e+00 : bf16
      %c16 = arith.constant 16 : index
      cf.br ^bb1
    ^bb1:  // 2 preds: ^bb0, ^bb1
      aie.use_lock(%lock_2_4_89, AcquireGreaterEqual, 1)
      func.call @linalg_fill_bf16_view16x16x4x4xbf16as2(%cst, %buf54) : (bf16, memref<16x16x4x4xbf16, 2>) -> ()
      scf.for %arg0 = %c0 to %c128 step %c16 {
        aie.use_lock(%lock_2_4_88, AcquireGreaterEqual, 1)
        aie.use_lock(%lock_2_4_86, AcquireGreaterEqual, 1)
        func.call @matmul_bf16_bf16(%buf51, %buf50, %buf54) : (memref<8x16x4x8xbf16, 2>, memref<16x8x8x4xbf16, 2>, memref<16x16x4x4xbf16, 2>) -> ()
        aie.use_lock(%lock_2_4_87, Release, 1)
        aie.use_lock(%lock_2_4, Release, 1)
        aie.use_lock(%lock_2_4_88, AcquireGreaterEqual, 1)
        aie.use_lock(%lock_2_4_86, AcquireGreaterEqual, 1)
        func.call @matmul_bf16_bf16(%buf52, %buf53, %buf54) : (memref<8x16x4x8xbf16, 2>, memref<16x8x8x4xbf16, 2>, memref<16x16x4x4xbf16, 2>) -> ()
        aie.use_lock(%lock_2_4_87, Release, 1)
        aie.use_lock(%lock_2_4, Release, 1)
      }
      aie.use_lock(%lock_2_4_90, Release, 1)
      cf.br ^bb1
    } {elf_file = "matmul_bf16_0_core_2_4.elf", link_with = "mm.o"}
    %mem_1_4 = aie.mem(%tile_1_4) {
      %0 = aie.dma_start(S2MM, 0, ^bb1, ^bb7)
    ^bb1:  // 2 preds: ^bb0, ^bb2
      aie.use_lock(%lock_1_4_82, AcquireGreaterEqual, 1)
      aie.dma_bd(%buf46 : memref<8x16x4x8xbf16, 2>, 0, 4096) {task_id = 0 : i32}
      aie.use_lock(%lock_1_4_83, Release, 1)
      aie.next_bd ^bb2
    ^bb2:  // pred: ^bb1
      aie.use_lock(%lock_1_4_82, AcquireGreaterEqual, 1)
      aie.dma_bd(%buf47 : memref<8x16x4x8xbf16, 2>, 0, 4096) {task_id = 0 : i32}
      aie.use_lock(%lock_1_4_83, Release, 1)
      aie.next_bd ^bb1
    ^bb3:  // pred: ^bb4
      aie.end
    ^bb4:  // pred: ^bb7
      %1 = aie.dma_start(S2MM, 1, ^bb5, ^bb3)
    ^bb5:  // 2 preds: ^bb4, ^bb6
      aie.use_lock(%lock_1_4, AcquireGreaterEqual, 1)
      aie.dma_bd(%buf45 : memref<16x8x8x4xbf16, 2>, 0, 4096) {task_id = 0 : i32}
      aie.use_lock(%lock_1_4_81, Release, 1)
      aie.next_bd ^bb6
    ^bb6:  // pred: ^bb5
      aie.use_lock(%lock_1_4, AcquireGreaterEqual, 1)
      aie.dma_bd(%buf48 : memref<16x8x8x4xbf16, 2>, 0, 4096) {task_id = 0 : i32}
      aie.use_lock(%lock_1_4_81, Release, 1)
      aie.next_bd ^bb5
    ^bb7:  // pred: ^bb0
      %2 = aie.dma_start(MM2S, 0, ^bb8, ^bb4)
    ^bb8:  // 2 preds: ^bb7, ^bb8
      aie.use_lock(%lock_1_4_85, AcquireGreaterEqual, 1)
      aie.dma_bd(%buf49 : memref<16x16x4x4xbf16, 2>, 0, 4096, [<size = 64, stride = 4>, <size = 16, stride = 256>, <size = 4, stride = 1>]) {task_id = 0 : i32}
      aie.use_lock(%lock_1_4_84, Release, 1)
      aie.next_bd ^bb8
    }
    %core_1_4 = aie.core(%tile_1_4) {
      %c128 = arith.constant 128 : index
      %c0 = arith.constant 0 : index
      %cst = arith.constant 0.000000e+00 : bf16
      %c16 = arith.constant 16 : index
      cf.br ^bb1
    ^bb1:  // 2 preds: ^bb0, ^bb1
      aie.use_lock(%lock_1_4_84, AcquireGreaterEqual, 1)
      func.call @linalg_fill_bf16_view16x16x4x4xbf16as2(%cst, %buf49) : (bf16, memref<16x16x4x4xbf16, 2>) -> ()
      scf.for %arg0 = %c0 to %c128 step %c16 {
        aie.use_lock(%lock_1_4_83, AcquireGreaterEqual, 1)
        aie.use_lock(%lock_1_4_81, AcquireGreaterEqual, 1)
        func.call @matmul_bf16_bf16(%buf46, %buf45, %buf49) : (memref<8x16x4x8xbf16, 2>, memref<16x8x8x4xbf16, 2>, memref<16x16x4x4xbf16, 2>) -> ()
        aie.use_lock(%lock_1_4_82, Release, 1)
        aie.use_lock(%lock_1_4, Release, 1)
        aie.use_lock(%lock_1_4_83, AcquireGreaterEqual, 1)
        aie.use_lock(%lock_1_4_81, AcquireGreaterEqual, 1)
        func.call @matmul_bf16_bf16(%buf47, %buf48, %buf49) : (memref<8x16x4x8xbf16, 2>, memref<16x8x8x4xbf16, 2>, memref<16x16x4x4xbf16, 2>) -> ()
        aie.use_lock(%lock_1_4_82, Release, 1)
        aie.use_lock(%lock_1_4, Release, 1)
      }
      aie.use_lock(%lock_1_4_85, Release, 1)
      cf.br ^bb1
    } {elf_file = "matmul_bf16_0_core_1_4.elf", link_with = "mm.o"}
    %mem_0_4 = aie.mem(%tile_0_4) {
      %0 = aie.dma_start(S2MM, 0, ^bb1, ^bb7)
    ^bb1:  // 2 preds: ^bb0, ^bb2
      aie.use_lock(%lock_0_4_77, AcquireGreaterEqual, 1)
      aie.dma_bd(%buf41 : memref<8x16x4x8xbf16, 2>, 0, 4096) {task_id = 0 : i32}
      aie.use_lock(%lock_0_4_78, Release, 1)
      aie.next_bd ^bb2
    ^bb2:  // pred: ^bb1
      aie.use_lock(%lock_0_4_77, AcquireGreaterEqual, 1)
      aie.dma_bd(%buf42 : memref<8x16x4x8xbf16, 2>, 0, 4096) {task_id = 0 : i32}
      aie.use_lock(%lock_0_4_78, Release, 1)
      aie.next_bd ^bb1
    ^bb3:  // pred: ^bb4
      aie.end
    ^bb4:  // pred: ^bb7
      %1 = aie.dma_start(S2MM, 1, ^bb5, ^bb3)
    ^bb5:  // 2 preds: ^bb4, ^bb6
      aie.use_lock(%lock_0_4, AcquireGreaterEqual, 1)
      aie.dma_bd(%buf40 : memref<16x8x8x4xbf16, 2>, 0, 4096) {task_id = 0 : i32}
      aie.use_lock(%lock_0_4_76, Release, 1)
      aie.next_bd ^bb6
    ^bb6:  // pred: ^bb5
      aie.use_lock(%lock_0_4, AcquireGreaterEqual, 1)
      aie.dma_bd(%buf43 : memref<16x8x8x4xbf16, 2>, 0, 4096) {task_id = 0 : i32}
      aie.use_lock(%lock_0_4_76, Release, 1)
      aie.next_bd ^bb5
    ^bb7:  // pred: ^bb0
      %2 = aie.dma_start(MM2S, 0, ^bb8, ^bb4)
    ^bb8:  // 2 preds: ^bb7, ^bb8
      aie.use_lock(%lock_0_4_80, AcquireGreaterEqual, 1)
      aie.dma_bd(%buf44 : memref<16x16x4x4xbf16, 2>, 0, 4096, [<size = 64, stride = 4>, <size = 16, stride = 256>, <size = 4, stride = 1>]) {task_id = 0 : i32}
      aie.use_lock(%lock_0_4_79, Release, 1)
      aie.next_bd ^bb8
    }
    %core_0_4 = aie.core(%tile_0_4) {
      %c128 = arith.constant 128 : index
      %cst = arith.constant 0.000000e+00 : bf16
      %c16 = arith.constant 16 : index
      %c0 = arith.constant 0 : index
      cf.br ^bb1
    ^bb1:  // 2 preds: ^bb0, ^bb1
      aie.use_lock(%lock_0_4_79, AcquireGreaterEqual, 1)
      func.call @linalg_fill_bf16_view16x16x4x4xbf16as2(%cst, %buf44) : (bf16, memref<16x16x4x4xbf16, 2>) -> ()
      scf.for %arg0 = %c0 to %c128 step %c16 {
        aie.use_lock(%lock_0_4_78, AcquireGreaterEqual, 1)
        aie.use_lock(%lock_0_4_76, AcquireGreaterEqual, 1)
        func.call @matmul_bf16_bf16(%buf41, %buf40, %buf44) : (memref<8x16x4x8xbf16, 2>, memref<16x8x8x4xbf16, 2>, memref<16x16x4x4xbf16, 2>) -> ()
        aie.use_lock(%lock_0_4_77, Release, 1)
        aie.use_lock(%lock_0_4, Release, 1)
        aie.use_lock(%lock_0_4_78, AcquireGreaterEqual, 1)
        aie.use_lock(%lock_0_4_76, AcquireGreaterEqual, 1)
        func.call @matmul_bf16_bf16(%buf42, %buf43, %buf44) : (memref<8x16x4x8xbf16, 2>, memref<16x8x8x4xbf16, 2>, memref<16x16x4x4xbf16, 2>) -> ()
        aie.use_lock(%lock_0_4_77, Release, 1)
        aie.use_lock(%lock_0_4, Release, 1)
      }
      aie.use_lock(%lock_0_4_80, Release, 1)
      cf.br ^bb1
    } {elf_file = "matmul_bf16_0_core_0_4.elf", link_with = "mm.o"}
    %mem_3_3 = aie.mem(%tile_3_3) {
      %0 = aie.dma_start(S2MM, 0, ^bb1, ^bb7)
    ^bb1:  // 2 preds: ^bb0, ^bb2
      aie.use_lock(%lock_3_3_72, AcquireGreaterEqual, 1)
      aie.dma_bd(%buf36 : memref<8x16x4x8xbf16, 2>, 0, 4096) {task_id = 0 : i32}
      aie.use_lock(%lock_3_3_73, Release, 1)
      aie.next_bd ^bb2
    ^bb2:  // pred: ^bb1
      aie.use_lock(%lock_3_3_72, AcquireGreaterEqual, 1)
      aie.dma_bd(%buf37 : memref<8x16x4x8xbf16, 2>, 0, 4096) {task_id = 0 : i32}
      aie.use_lock(%lock_3_3_73, Release, 1)
      aie.next_bd ^bb1
    ^bb3:  // pred: ^bb4
      aie.end
    ^bb4:  // pred: ^bb7
      %1 = aie.dma_start(S2MM, 1, ^bb5, ^bb3)
    ^bb5:  // 2 preds: ^bb4, ^bb6
      aie.use_lock(%lock_3_3, AcquireGreaterEqual, 1)
      aie.dma_bd(%buf35 : memref<16x8x8x4xbf16, 2>, 0, 4096) {task_id = 0 : i32}
      aie.use_lock(%lock_3_3_71, Release, 1)
      aie.next_bd ^bb6
    ^bb6:  // pred: ^bb5
      aie.use_lock(%lock_3_3, AcquireGreaterEqual, 1)
      aie.dma_bd(%buf38 : memref<16x8x8x4xbf16, 2>, 0, 4096) {task_id = 0 : i32}
      aie.use_lock(%lock_3_3_71, Release, 1)
      aie.next_bd ^bb5
    ^bb7:  // pred: ^bb0
      %2 = aie.dma_start(MM2S, 0, ^bb8, ^bb4)
    ^bb8:  // 2 preds: ^bb7, ^bb8
      aie.use_lock(%lock_3_3_75, AcquireGreaterEqual, 1)
      aie.dma_bd(%buf39 : memref<16x16x4x4xbf16, 2>, 0, 4096, [<size = 64, stride = 4>, <size = 16, stride = 256>, <size = 4, stride = 1>]) {task_id = 0 : i32}
      aie.use_lock(%lock_3_3_74, Release, 1)
      aie.next_bd ^bb8
    }
    %core_3_3 = aie.core(%tile_3_3) {
      %c128 = arith.constant 128 : index
      %c0 = arith.constant 0 : index
      %cst = arith.constant 0.000000e+00 : bf16
      %c16 = arith.constant 16 : index
      cf.br ^bb1
    ^bb1:  // 2 preds: ^bb0, ^bb1
      aie.use_lock(%lock_3_3_74, AcquireGreaterEqual, 1)
      func.call @linalg_fill_bf16_view16x16x4x4xbf16as2(%cst, %buf39) : (bf16, memref<16x16x4x4xbf16, 2>) -> ()
      scf.for %arg0 = %c0 to %c128 step %c16 {
        aie.use_lock(%lock_3_3_73, AcquireGreaterEqual, 1)
        aie.use_lock(%lock_3_3_71, AcquireGreaterEqual, 1)
        func.call @matmul_bf16_bf16(%buf36, %buf35, %buf39) : (memref<8x16x4x8xbf16, 2>, memref<16x8x8x4xbf16, 2>, memref<16x16x4x4xbf16, 2>) -> ()
        aie.use_lock(%lock_3_3_72, Release, 1)
        aie.use_lock(%lock_3_3, Release, 1)
        aie.use_lock(%lock_3_3_73, AcquireGreaterEqual, 1)
        aie.use_lock(%lock_3_3_71, AcquireGreaterEqual, 1)
        func.call @matmul_bf16_bf16(%buf37, %buf38, %buf39) : (memref<8x16x4x8xbf16, 2>, memref<16x8x8x4xbf16, 2>, memref<16x16x4x4xbf16, 2>) -> ()
        aie.use_lock(%lock_3_3_72, Release, 1)
        aie.use_lock(%lock_3_3, Release, 1)
      }
      aie.use_lock(%lock_3_3_75, Release, 1)
      cf.br ^bb1
    } {elf_file = "matmul_bf16_0_core_3_3.elf", link_with = "mm.o"}
    %mem_2_3 = aie.mem(%tile_2_3) {
      %0 = aie.dma_start(S2MM, 0, ^bb1, ^bb7)
    ^bb1:  // 2 preds: ^bb0, ^bb2
      aie.use_lock(%lock_2_3_67, AcquireGreaterEqual, 1)
      aie.dma_bd(%buf31 : memref<8x16x4x8xbf16, 2>, 0, 4096) {task_id = 0 : i32}
      aie.use_lock(%lock_2_3_68, Release, 1)
      aie.next_bd ^bb2
    ^bb2:  // pred: ^bb1
      aie.use_lock(%lock_2_3_67, AcquireGreaterEqual, 1)
      aie.dma_bd(%buf32 : memref<8x16x4x8xbf16, 2>, 0, 4096) {task_id = 0 : i32}
      aie.use_lock(%lock_2_3_68, Release, 1)
      aie.next_bd ^bb1
    ^bb3:  // pred: ^bb4
      aie.end
    ^bb4:  // pred: ^bb7
      %1 = aie.dma_start(S2MM, 1, ^bb5, ^bb3)
    ^bb5:  // 2 preds: ^bb4, ^bb6
      aie.use_lock(%lock_2_3, AcquireGreaterEqual, 1)
      aie.dma_bd(%buf30 : memref<16x8x8x4xbf16, 2>, 0, 4096) {task_id = 0 : i32}
      aie.use_lock(%lock_2_3_66, Release, 1)
      aie.next_bd ^bb6
    ^bb6:  // pred: ^bb5
      aie.use_lock(%lock_2_3, AcquireGreaterEqual, 1)
      aie.dma_bd(%buf33 : memref<16x8x8x4xbf16, 2>, 0, 4096) {task_id = 0 : i32}
      aie.use_lock(%lock_2_3_66, Release, 1)
      aie.next_bd ^bb5
    ^bb7:  // pred: ^bb0
      %2 = aie.dma_start(MM2S, 0, ^bb8, ^bb4)
    ^bb8:  // 2 preds: ^bb7, ^bb8
      aie.use_lock(%lock_2_3_70, AcquireGreaterEqual, 1)
      aie.dma_bd(%buf34 : memref<16x16x4x4xbf16, 2>, 0, 4096, [<size = 64, stride = 4>, <size = 16, stride = 256>, <size = 4, stride = 1>]) {task_id = 0 : i32}
      aie.use_lock(%lock_2_3_69, Release, 1)
      aie.next_bd ^bb8
    }
    %core_2_3 = aie.core(%tile_2_3) {
      %c128 = arith.constant 128 : index
      %c0 = arith.constant 0 : index
      %cst = arith.constant 0.000000e+00 : bf16
      %c16 = arith.constant 16 : index
      cf.br ^bb1
    ^bb1:  // 2 preds: ^bb0, ^bb1
      aie.use_lock(%lock_2_3_69, AcquireGreaterEqual, 1)
      func.call @linalg_fill_bf16_view16x16x4x4xbf16as2(%cst, %buf34) : (bf16, memref<16x16x4x4xbf16, 2>) -> ()
      scf.for %arg0 = %c0 to %c128 step %c16 {
        aie.use_lock(%lock_2_3_68, AcquireGreaterEqual, 1)
        aie.use_lock(%lock_2_3_66, AcquireGreaterEqual, 1)
        func.call @matmul_bf16_bf16(%buf31, %buf30, %buf34) : (memref<8x16x4x8xbf16, 2>, memref<16x8x8x4xbf16, 2>, memref<16x16x4x4xbf16, 2>) -> ()
        aie.use_lock(%lock_2_3_67, Release, 1)
        aie.use_lock(%lock_2_3, Release, 1)
        aie.use_lock(%lock_2_3_68, AcquireGreaterEqual, 1)
        aie.use_lock(%lock_2_3_66, AcquireGreaterEqual, 1)
        func.call @matmul_bf16_bf16(%buf32, %buf33, %buf34) : (memref<8x16x4x8xbf16, 2>, memref<16x8x8x4xbf16, 2>, memref<16x16x4x4xbf16, 2>) -> ()
        aie.use_lock(%lock_2_3_67, Release, 1)
        aie.use_lock(%lock_2_3, Release, 1)
      }
      aie.use_lock(%lock_2_3_70, Release, 1)
      cf.br ^bb1
    } {elf_file = "matmul_bf16_0_core_2_3.elf", link_with = "mm.o"}
    %mem_1_3 = aie.mem(%tile_1_3) {
      %0 = aie.dma_start(S2MM, 0, ^bb1, ^bb7)
    ^bb1:  // 2 preds: ^bb0, ^bb2
      aie.use_lock(%lock_1_3_62, AcquireGreaterEqual, 1)
      aie.dma_bd(%buf26 : memref<8x16x4x8xbf16, 2>, 0, 4096) {task_id = 0 : i32}
      aie.use_lock(%lock_1_3_63, Release, 1)
      aie.next_bd ^bb2
    ^bb2:  // pred: ^bb1
      aie.use_lock(%lock_1_3_62, AcquireGreaterEqual, 1)
      aie.dma_bd(%buf27 : memref<8x16x4x8xbf16, 2>, 0, 4096) {task_id = 0 : i32}
      aie.use_lock(%lock_1_3_63, Release, 1)
      aie.next_bd ^bb1
    ^bb3:  // pred: ^bb4
      aie.end
    ^bb4:  // pred: ^bb7
      %1 = aie.dma_start(S2MM, 1, ^bb5, ^bb3)
    ^bb5:  // 2 preds: ^bb4, ^bb6
      aie.use_lock(%lock_1_3, AcquireGreaterEqual, 1)
      aie.dma_bd(%buf25 : memref<16x8x8x4xbf16, 2>, 0, 4096) {task_id = 0 : i32}
      aie.use_lock(%lock_1_3_61, Release, 1)
      aie.next_bd ^bb6
    ^bb6:  // pred: ^bb5
      aie.use_lock(%lock_1_3, AcquireGreaterEqual, 1)
      aie.dma_bd(%buf28 : memref<16x8x8x4xbf16, 2>, 0, 4096) {task_id = 0 : i32}
      aie.use_lock(%lock_1_3_61, Release, 1)
      aie.next_bd ^bb5
    ^bb7:  // pred: ^bb0
      %2 = aie.dma_start(MM2S, 0, ^bb8, ^bb4)
    ^bb8:  // 2 preds: ^bb7, ^bb8
      aie.use_lock(%lock_1_3_65, AcquireGreaterEqual, 1)
      aie.dma_bd(%buf29 : memref<16x16x4x4xbf16, 2>, 0, 4096, [<size = 64, stride = 4>, <size = 16, stride = 256>, <size = 4, stride = 1>]) {task_id = 0 : i32}
      aie.use_lock(%lock_1_3_64, Release, 1)
      aie.next_bd ^bb8
    }
    %core_1_3 = aie.core(%tile_1_3) {
      %c128 = arith.constant 128 : index
      %c0 = arith.constant 0 : index
      %cst = arith.constant 0.000000e+00 : bf16
      %c16 = arith.constant 16 : index
      cf.br ^bb1
    ^bb1:  // 2 preds: ^bb0, ^bb1
      aie.use_lock(%lock_1_3_64, AcquireGreaterEqual, 1)
      func.call @linalg_fill_bf16_view16x16x4x4xbf16as2(%cst, %buf29) : (bf16, memref<16x16x4x4xbf16, 2>) -> ()
      scf.for %arg0 = %c0 to %c128 step %c16 {
        aie.use_lock(%lock_1_3_63, AcquireGreaterEqual, 1)
        aie.use_lock(%lock_1_3_61, AcquireGreaterEqual, 1)
        func.call @matmul_bf16_bf16(%buf26, %buf25, %buf29) : (memref<8x16x4x8xbf16, 2>, memref<16x8x8x4xbf16, 2>, memref<16x16x4x4xbf16, 2>) -> ()
        aie.use_lock(%lock_1_3_62, Release, 1)
        aie.use_lock(%lock_1_3, Release, 1)
        aie.use_lock(%lock_1_3_63, AcquireGreaterEqual, 1)
        aie.use_lock(%lock_1_3_61, AcquireGreaterEqual, 1)
        func.call @matmul_bf16_bf16(%buf27, %buf28, %buf29) : (memref<8x16x4x8xbf16, 2>, memref<16x8x8x4xbf16, 2>, memref<16x16x4x4xbf16, 2>) -> ()
        aie.use_lock(%lock_1_3_62, Release, 1)
        aie.use_lock(%lock_1_3, Release, 1)
      }
      aie.use_lock(%lock_1_3_65, Release, 1)
      cf.br ^bb1
    } {elf_file = "matmul_bf16_0_core_1_3.elf", link_with = "mm.o"}
    %mem_0_3 = aie.mem(%tile_0_3) {
      %0 = aie.dma_start(S2MM, 0, ^bb1, ^bb7)
    ^bb1:  // 2 preds: ^bb0, ^bb2
      aie.use_lock(%lock_0_3_57, AcquireGreaterEqual, 1)
      aie.dma_bd(%buf21 : memref<8x16x4x8xbf16, 2>, 0, 4096) {task_id = 0 : i32}
      aie.use_lock(%lock_0_3_58, Release, 1)
      aie.next_bd ^bb2
    ^bb2:  // pred: ^bb1
      aie.use_lock(%lock_0_3_57, AcquireGreaterEqual, 1)
      aie.dma_bd(%buf22 : memref<8x16x4x8xbf16, 2>, 0, 4096) {task_id = 0 : i32}
      aie.use_lock(%lock_0_3_58, Release, 1)
      aie.next_bd ^bb1
    ^bb3:  // pred: ^bb4
      aie.end
    ^bb4:  // pred: ^bb7
      %1 = aie.dma_start(S2MM, 1, ^bb5, ^bb3)
    ^bb5:  // 2 preds: ^bb4, ^bb6
      aie.use_lock(%lock_0_3, AcquireGreaterEqual, 1)
      aie.dma_bd(%buf20 : memref<16x8x8x4xbf16, 2>, 0, 4096) {task_id = 0 : i32}
      aie.use_lock(%lock_0_3_56, Release, 1)
      aie.next_bd ^bb6
    ^bb6:  // pred: ^bb5
      aie.use_lock(%lock_0_3, AcquireGreaterEqual, 1)
      aie.dma_bd(%buf23 : memref<16x8x8x4xbf16, 2>, 0, 4096) {task_id = 0 : i32}
      aie.use_lock(%lock_0_3_56, Release, 1)
      aie.next_bd ^bb5
    ^bb7:  // pred: ^bb0
      %2 = aie.dma_start(MM2S, 0, ^bb8, ^bb4)
    ^bb8:  // 2 preds: ^bb7, ^bb8
      aie.use_lock(%lock_0_3_60, AcquireGreaterEqual, 1)
      aie.dma_bd(%buf24 : memref<16x16x4x4xbf16, 2>, 0, 4096, [<size = 64, stride = 4>, <size = 16, stride = 256>, <size = 4, stride = 1>]) {task_id = 0 : i32}
      aie.use_lock(%lock_0_3_59, Release, 1)
      aie.next_bd ^bb8
    }
    %core_0_3 = aie.core(%tile_0_3) {
      %c128 = arith.constant 128 : index
      %cst = arith.constant 0.000000e+00 : bf16
      %c16 = arith.constant 16 : index
      %c0 = arith.constant 0 : index
      cf.br ^bb1
    ^bb1:  // 2 preds: ^bb0, ^bb1
      aie.use_lock(%lock_0_3_59, AcquireGreaterEqual, 1)
      func.call @linalg_fill_bf16_view16x16x4x4xbf16as2(%cst, %buf24) : (bf16, memref<16x16x4x4xbf16, 2>) -> ()
      scf.for %arg0 = %c0 to %c128 step %c16 {
        aie.use_lock(%lock_0_3_58, AcquireGreaterEqual, 1)
        aie.use_lock(%lock_0_3_56, AcquireGreaterEqual, 1)
        func.call @matmul_bf16_bf16(%buf21, %buf20, %buf24) : (memref<8x16x4x8xbf16, 2>, memref<16x8x8x4xbf16, 2>, memref<16x16x4x4xbf16, 2>) -> ()
        aie.use_lock(%lock_0_3_57, Release, 1)
        aie.use_lock(%lock_0_3, Release, 1)
        aie.use_lock(%lock_0_3_58, AcquireGreaterEqual, 1)
        aie.use_lock(%lock_0_3_56, AcquireGreaterEqual, 1)
        func.call @matmul_bf16_bf16(%buf22, %buf23, %buf24) : (memref<8x16x4x8xbf16, 2>, memref<16x8x8x4xbf16, 2>, memref<16x16x4x4xbf16, 2>) -> ()
        aie.use_lock(%lock_0_3_57, Release, 1)
        aie.use_lock(%lock_0_3, Release, 1)
      }
      aie.use_lock(%lock_0_3_60, Release, 1)
      cf.br ^bb1
    } {elf_file = "matmul_bf16_0_core_0_3.elf", link_with = "mm.o"}
    %mem_3_2 = aie.mem(%tile_3_2) {
      %0 = aie.dma_start(S2MM, 0, ^bb1, ^bb7)
    ^bb1:  // 2 preds: ^bb0, ^bb2
      aie.use_lock(%lock_3_2_52, AcquireGreaterEqual, 1)
      aie.dma_bd(%buf16 : memref<8x16x4x8xbf16, 2>, 0, 4096) {task_id = 0 : i32}
      aie.use_lock(%lock_3_2_53, Release, 1)
      aie.next_bd ^bb2
    ^bb2:  // pred: ^bb1
      aie.use_lock(%lock_3_2_52, AcquireGreaterEqual, 1)
      aie.dma_bd(%buf17 : memref<8x16x4x8xbf16, 2>, 0, 4096) {task_id = 0 : i32}
      aie.use_lock(%lock_3_2_53, Release, 1)
      aie.next_bd ^bb1
    ^bb3:  // pred: ^bb4
      aie.end
    ^bb4:  // pred: ^bb7
      %1 = aie.dma_start(S2MM, 1, ^bb5, ^bb3)
    ^bb5:  // 2 preds: ^bb4, ^bb6
      aie.use_lock(%lock_3_2, AcquireGreaterEqual, 1)
      aie.dma_bd(%buf15 : memref<16x8x8x4xbf16, 2>, 0, 4096) {task_id = 0 : i32}
      aie.use_lock(%lock_3_2_51, Release, 1)
      aie.next_bd ^bb6
    ^bb6:  // pred: ^bb5
      aie.use_lock(%lock_3_2, AcquireGreaterEqual, 1)
      aie.dma_bd(%buf18 : memref<16x8x8x4xbf16, 2>, 0, 4096) {task_id = 0 : i32}
      aie.use_lock(%lock_3_2_51, Release, 1)
      aie.next_bd ^bb5
    ^bb7:  // pred: ^bb0
      %2 = aie.dma_start(MM2S, 0, ^bb8, ^bb4)
    ^bb8:  // 2 preds: ^bb7, ^bb8
      aie.use_lock(%lock_3_2_55, AcquireGreaterEqual, 1)
      aie.dma_bd(%buf19 : memref<16x16x4x4xbf16, 2>, 0, 4096, [<size = 64, stride = 4>, <size = 16, stride = 256>, <size = 4, stride = 1>]) {task_id = 0 : i32}
      aie.use_lock(%lock_3_2_54, Release, 1)
      aie.next_bd ^bb8
    }
    %core_3_2 = aie.core(%tile_3_2) {
      %c128 = arith.constant 128 : index
      %cst = arith.constant 0.000000e+00 : bf16
      %c16 = arith.constant 16 : index
      %c0 = arith.constant 0 : index
      cf.br ^bb1
    ^bb1:  // 2 preds: ^bb0, ^bb1
      aie.use_lock(%lock_3_2_54, AcquireGreaterEqual, 1)
      func.call @linalg_fill_bf16_view16x16x4x4xbf16as2(%cst, %buf19) : (bf16, memref<16x16x4x4xbf16, 2>) -> ()
      scf.for %arg0 = %c0 to %c128 step %c16 {
        aie.use_lock(%lock_3_2_53, AcquireGreaterEqual, 1)
        aie.use_lock(%lock_3_2_51, AcquireGreaterEqual, 1)
        func.call @matmul_bf16_bf16(%buf16, %buf15, %buf19) : (memref<8x16x4x8xbf16, 2>, memref<16x8x8x4xbf16, 2>, memref<16x16x4x4xbf16, 2>) -> ()
        aie.use_lock(%lock_3_2_52, Release, 1)
        aie.use_lock(%lock_3_2, Release, 1)
        aie.use_lock(%lock_3_2_53, AcquireGreaterEqual, 1)
        aie.use_lock(%lock_3_2_51, AcquireGreaterEqual, 1)
        func.call @matmul_bf16_bf16(%buf17, %buf18, %buf19) : (memref<8x16x4x8xbf16, 2>, memref<16x8x8x4xbf16, 2>, memref<16x16x4x4xbf16, 2>) -> ()
        aie.use_lock(%lock_3_2_52, Release, 1)
        aie.use_lock(%lock_3_2, Release, 1)
      }
      aie.use_lock(%lock_3_2_55, Release, 1)
      cf.br ^bb1
    } {elf_file = "matmul_bf16_0_core_3_2.elf", link_with = "mm.o"}
    %mem_2_2 = aie.mem(%tile_2_2) {
      %0 = aie.dma_start(S2MM, 0, ^bb1, ^bb7)
    ^bb1:  // 2 preds: ^bb0, ^bb2
      aie.use_lock(%lock_2_2_47, AcquireGreaterEqual, 1)
      aie.dma_bd(%buf11 : memref<8x16x4x8xbf16, 2>, 0, 4096) {task_id = 0 : i32}
      aie.use_lock(%lock_2_2_48, Release, 1)
      aie.next_bd ^bb2
    ^bb2:  // pred: ^bb1
      aie.use_lock(%lock_2_2_47, AcquireGreaterEqual, 1)
      aie.dma_bd(%buf12 : memref<8x16x4x8xbf16, 2>, 0, 4096) {task_id = 0 : i32}
      aie.use_lock(%lock_2_2_48, Release, 1)
      aie.next_bd ^bb1
    ^bb3:  // pred: ^bb4
      aie.end
    ^bb4:  // pred: ^bb7
      %1 = aie.dma_start(S2MM, 1, ^bb5, ^bb3)
    ^bb5:  // 2 preds: ^bb4, ^bb6
      aie.use_lock(%lock_2_2, AcquireGreaterEqual, 1)
      aie.dma_bd(%buf10 : memref<16x8x8x4xbf16, 2>, 0, 4096) {task_id = 0 : i32}
      aie.use_lock(%lock_2_2_46, Release, 1)
      aie.next_bd ^bb6
    ^bb6:  // pred: ^bb5
      aie.use_lock(%lock_2_2, AcquireGreaterEqual, 1)
      aie.dma_bd(%buf13 : memref<16x8x8x4xbf16, 2>, 0, 4096) {task_id = 0 : i32}
      aie.use_lock(%lock_2_2_46, Release, 1)
      aie.next_bd ^bb5
    ^bb7:  // pred: ^bb0
      %2 = aie.dma_start(MM2S, 0, ^bb8, ^bb4)
    ^bb8:  // 2 preds: ^bb7, ^bb8
      aie.use_lock(%lock_2_2_50, AcquireGreaterEqual, 1)
      aie.dma_bd(%buf14 : memref<16x16x4x4xbf16, 2>, 0, 4096, [<size = 64, stride = 4>, <size = 16, stride = 256>, <size = 4, stride = 1>]) {task_id = 0 : i32}
      aie.use_lock(%lock_2_2_49, Release, 1)
      aie.next_bd ^bb8
    }
    %core_2_2 = aie.core(%tile_2_2) {
      %c128 = arith.constant 128 : index
      %cst = arith.constant 0.000000e+00 : bf16
      %c16 = arith.constant 16 : index
      %c0 = arith.constant 0 : index
      cf.br ^bb1
    ^bb1:  // 2 preds: ^bb0, ^bb1
      aie.use_lock(%lock_2_2_49, AcquireGreaterEqual, 1)
      func.call @linalg_fill_bf16_view16x16x4x4xbf16as2(%cst, %buf14) : (bf16, memref<16x16x4x4xbf16, 2>) -> ()
      scf.for %arg0 = %c0 to %c128 step %c16 {
        aie.use_lock(%lock_2_2_48, AcquireGreaterEqual, 1)
        aie.use_lock(%lock_2_2_46, AcquireGreaterEqual, 1)
        func.call @matmul_bf16_bf16(%buf11, %buf10, %buf14) : (memref<8x16x4x8xbf16, 2>, memref<16x8x8x4xbf16, 2>, memref<16x16x4x4xbf16, 2>) -> ()
        aie.use_lock(%lock_2_2_47, Release, 1)
        aie.use_lock(%lock_2_2, Release, 1)
        aie.use_lock(%lock_2_2_48, AcquireGreaterEqual, 1)
        aie.use_lock(%lock_2_2_46, AcquireGreaterEqual, 1)
        func.call @matmul_bf16_bf16(%buf12, %buf13, %buf14) : (memref<8x16x4x8xbf16, 2>, memref<16x8x8x4xbf16, 2>, memref<16x16x4x4xbf16, 2>) -> ()
        aie.use_lock(%lock_2_2_47, Release, 1)
        aie.use_lock(%lock_2_2, Release, 1)
      }
      aie.use_lock(%lock_2_2_50, Release, 1)
      cf.br ^bb1
    } {elf_file = "matmul_bf16_0_core_2_2.elf", link_with = "mm.o"}
    %mem_1_2 = aie.mem(%tile_1_2) {
      %0 = aie.dma_start(S2MM, 0, ^bb1, ^bb7)
    ^bb1:  // 2 preds: ^bb0, ^bb2
      aie.use_lock(%lock_1_2_42, AcquireGreaterEqual, 1)
      aie.dma_bd(%buf6 : memref<8x16x4x8xbf16, 2>, 0, 4096) {task_id = 0 : i32}
      aie.use_lock(%lock_1_2_43, Release, 1)
      aie.next_bd ^bb2
    ^bb2:  // pred: ^bb1
      aie.use_lock(%lock_1_2_42, AcquireGreaterEqual, 1)
      aie.dma_bd(%buf7 : memref<8x16x4x8xbf16, 2>, 0, 4096) {task_id = 0 : i32}
      aie.use_lock(%lock_1_2_43, Release, 1)
      aie.next_bd ^bb1
    ^bb3:  // pred: ^bb4
      aie.end
    ^bb4:  // pred: ^bb7
      %1 = aie.dma_start(S2MM, 1, ^bb5, ^bb3)
    ^bb5:  // 2 preds: ^bb4, ^bb6
      aie.use_lock(%lock_1_2, AcquireGreaterEqual, 1)
      aie.dma_bd(%buf5 : memref<16x8x8x4xbf16, 2>, 0, 4096) {task_id = 0 : i32}
      aie.use_lock(%lock_1_2_41, Release, 1)
      aie.next_bd ^bb6
    ^bb6:  // pred: ^bb5
      aie.use_lock(%lock_1_2, AcquireGreaterEqual, 1)
      aie.dma_bd(%buf8 : memref<16x8x8x4xbf16, 2>, 0, 4096) {task_id = 0 : i32}
      aie.use_lock(%lock_1_2_41, Release, 1)
      aie.next_bd ^bb5
    ^bb7:  // pred: ^bb0
      %2 = aie.dma_start(MM2S, 0, ^bb8, ^bb4)
    ^bb8:  // 2 preds: ^bb7, ^bb8
      aie.use_lock(%lock_1_2_45, AcquireGreaterEqual, 1)
      aie.dma_bd(%buf9 : memref<16x16x4x4xbf16, 2>, 0, 4096, [<size = 64, stride = 4>, <size = 16, stride = 256>, <size = 4, stride = 1>]) {task_id = 0 : i32}
      aie.use_lock(%lock_1_2_44, Release, 1)
      aie.next_bd ^bb8
    }
    %core_1_2 = aie.core(%tile_1_2) {
      %c128 = arith.constant 128 : index
      %cst = arith.constant 0.000000e+00 : bf16
      %c16 = arith.constant 16 : index
      %c0 = arith.constant 0 : index
      cf.br ^bb1
    ^bb1:  // 2 preds: ^bb0, ^bb1
      aie.use_lock(%lock_1_2_44, AcquireGreaterEqual, 1)
      func.call @linalg_fill_bf16_view16x16x4x4xbf16as2(%cst, %buf9) : (bf16, memref<16x16x4x4xbf16, 2>) -> ()
      scf.for %arg0 = %c0 to %c128 step %c16 {
        aie.use_lock(%lock_1_2_43, AcquireGreaterEqual, 1)
        aie.use_lock(%lock_1_2_41, AcquireGreaterEqual, 1)
        func.call @matmul_bf16_bf16(%buf6, %buf5, %buf9) : (memref<8x16x4x8xbf16, 2>, memref<16x8x8x4xbf16, 2>, memref<16x16x4x4xbf16, 2>) -> ()
        aie.use_lock(%lock_1_2_42, Release, 1)
        aie.use_lock(%lock_1_2, Release, 1)
        aie.use_lock(%lock_1_2_43, AcquireGreaterEqual, 1)
        aie.use_lock(%lock_1_2_41, AcquireGreaterEqual, 1)
        func.call @matmul_bf16_bf16(%buf7, %buf8, %buf9) : (memref<8x16x4x8xbf16, 2>, memref<16x8x8x4xbf16, 2>, memref<16x16x4x4xbf16, 2>) -> ()
        aie.use_lock(%lock_1_2_42, Release, 1)
        aie.use_lock(%lock_1_2, Release, 1)
      }
      aie.use_lock(%lock_1_2_45, Release, 1)
      cf.br ^bb1
    } {elf_file = "matmul_bf16_0_core_1_2.elf", link_with = "mm.o"}
    %mem_0_2 = aie.mem(%tile_0_2) {
      %0 = aie.dma_start(S2MM, 0, ^bb1, ^bb7)
    ^bb1:  // 2 preds: ^bb0, ^bb2
      aie.use_lock(%lock_0_2_37, AcquireGreaterEqual, 1)
      aie.dma_bd(%buf1 : memref<8x16x4x8xbf16, 2>, 0, 4096) {task_id = 0 : i32}
      aie.use_lock(%lock_0_2_38, Release, 1)
      aie.next_bd ^bb2
    ^bb2:  // pred: ^bb1
      aie.use_lock(%lock_0_2_37, AcquireGreaterEqual, 1)
      aie.dma_bd(%buf2 : memref<8x16x4x8xbf16, 2>, 0, 4096) {task_id = 0 : i32}
      aie.use_lock(%lock_0_2_38, Release, 1)
      aie.next_bd ^bb1
    ^bb3:  // pred: ^bb4
      aie.end
    ^bb4:  // pred: ^bb7
      %1 = aie.dma_start(S2MM, 1, ^bb5, ^bb3)
    ^bb5:  // 2 preds: ^bb4, ^bb6
      aie.use_lock(%lock_0_2, AcquireGreaterEqual, 1)
      aie.dma_bd(%buf0 : memref<16x8x8x4xbf16, 2>, 0, 4096) {task_id = 0 : i32}
      aie.use_lock(%lock_0_2_36, Release, 1)
      aie.next_bd ^bb6
    ^bb6:  // pred: ^bb5
      aie.use_lock(%lock_0_2, AcquireGreaterEqual, 1)
      aie.dma_bd(%buf3 : memref<16x8x8x4xbf16, 2>, 0, 4096) {task_id = 0 : i32}
      aie.use_lock(%lock_0_2_36, Release, 1)
      aie.next_bd ^bb5
    ^bb7:  // pred: ^bb0
      %2 = aie.dma_start(MM2S, 0, ^bb8, ^bb4)
    ^bb8:  // 2 preds: ^bb7, ^bb8
      aie.use_lock(%lock_0_2_40, AcquireGreaterEqual, 1)
      aie.dma_bd(%buf4 : memref<16x16x4x4xbf16, 2>, 0, 4096, [<size = 64, stride = 4>, <size = 16, stride = 256>, <size = 4, stride = 1>]) {task_id = 0 : i32}
      aie.use_lock(%lock_0_2_39, Release, 1)
      aie.next_bd ^bb8
    }
    %core_0_2 = aie.core(%tile_0_2) {
      %c128 = arith.constant 128 : index
      %cst = arith.constant 0.000000e+00 : bf16
      %c16 = arith.constant 16 : index
      %c0 = arith.constant 0 : index
      cf.br ^bb1
    ^bb1:  // 2 preds: ^bb0, ^bb1
      aie.use_lock(%lock_0_2_39, AcquireGreaterEqual, 1)
      func.call @linalg_fill_bf16_view16x16x4x4xbf16as2(%cst, %buf4) : (bf16, memref<16x16x4x4xbf16, 2>) -> ()
      scf.for %arg0 = %c0 to %c128 step %c16 {
        aie.use_lock(%lock_0_2_38, AcquireGreaterEqual, 1)
        aie.use_lock(%lock_0_2_36, AcquireGreaterEqual, 1)
        func.call @matmul_bf16_bf16(%buf1, %buf0, %buf4) : (memref<8x16x4x8xbf16, 2>, memref<16x8x8x4xbf16, 2>, memref<16x16x4x4xbf16, 2>) -> ()
        aie.use_lock(%lock_0_2_37, Release, 1)
        aie.use_lock(%lock_0_2, Release, 1)
        aie.use_lock(%lock_0_2_38, AcquireGreaterEqual, 1)
        aie.use_lock(%lock_0_2_36, AcquireGreaterEqual, 1)
        func.call @matmul_bf16_bf16(%buf2, %buf3, %buf4) : (memref<8x16x4x8xbf16, 2>, memref<16x8x8x4xbf16, 2>, memref<16x16x4x4xbf16, 2>) -> ()
        aie.use_lock(%lock_0_2_37, Release, 1)
        aie.use_lock(%lock_0_2, Release, 1)
      }
      aie.use_lock(%lock_0_2_40, Release, 1)
      cf.br ^bb1
    } {elf_file = "matmul_bf16_0_core_0_2.elf", link_with = "mm.o"}
    func.func private @linalg_fill_bf16_view16x16x4x4xbf16as2(bf16, memref<16x16x4x4xbf16, 2>)
    func.func private @matmul_bf16_bf16(memref<8x16x4x8xbf16, 2>, memref<16x8x8x4xbf16, 2>, memref<16x16x4x4xbf16, 2>)
    aie.flow(%tile_3_0, DMA : 0, %tile_3_1, DMA : 0)
    aie.flow(%tile_2_0, DMA : 0, %tile_2_1, DMA : 0)
    aie.flow(%tile_1_0, DMA : 0, %tile_1_1, DMA : 0)
    aie.flow(%tile_0_0, DMA : 0, %tile_0_1, DMA : 0)
    aie.flow(%tile_3_0, DMA : 1, %tile_3_1, DMA : 1)
    aie.flow(%tile_2_0, DMA : 1, %tile_2_1, DMA : 1)
    aie.flow(%tile_1_0, DMA : 1, %tile_1_1, DMA : 1)
    aie.flow(%tile_0_0, DMA : 1, %tile_0_1, DMA : 1)
    aie.flow(%tile_0_1, DMA : 0, %tile_0_0, DMA : 0)
    aie.flow(%tile_1_1, DMA : 0, %tile_1_0, DMA : 0)
    aie.flow(%tile_2_1, DMA : 0, %tile_2_0, DMA : 0)
    aie.flow(%tile_3_1, DMA : 0, %tile_3_0, DMA : 0)
    aie.flow(%tile_3_1, DMA : 1, %tile_0_2, DMA : 0)
    aie.flow(%tile_3_1, DMA : 1, %tile_0_3, DMA : 0)
    aie.flow(%tile_3_1, DMA : 1, %tile_0_4, DMA : 0)
    aie.flow(%tile_3_1, DMA : 1, %tile_0_5, DMA : 0)
    aie.flow(%tile_2_1, DMA : 1, %tile_1_2, DMA : 0)
    aie.flow(%tile_2_1, DMA : 1, %tile_1_3, DMA : 0)
    aie.flow(%tile_2_1, DMA : 1, %tile_1_4, DMA : 0)
    aie.flow(%tile_2_1, DMA : 1, %tile_1_5, DMA : 0)
    aie.flow(%tile_1_1, DMA : 1, %tile_2_2, DMA : 0)
    aie.flow(%tile_1_1, DMA : 1, %tile_2_3, DMA : 0)
    aie.flow(%tile_1_1, DMA : 1, %tile_2_4, DMA : 0)
    aie.flow(%tile_1_1, DMA : 1, %tile_2_5, DMA : 0)
    aie.flow(%tile_0_1, DMA : 1, %tile_3_2, DMA : 0)
    aie.flow(%tile_0_1, DMA : 1, %tile_3_3, DMA : 0)
    aie.flow(%tile_0_1, DMA : 1, %tile_3_4, DMA : 0)
    aie.flow(%tile_0_1, DMA : 1, %tile_3_5, DMA : 0)
    aie.flow(%tile_3_1, DMA : 2, %tile_0_2, DMA : 1)
    aie.flow(%tile_3_1, DMA : 2, %tile_1_2, DMA : 1)
    aie.flow(%tile_3_1, DMA : 2, %tile_2_2, DMA : 1)
    aie.flow(%tile_3_1, DMA : 2, %tile_3_2, DMA : 1)
    aie.flow(%tile_2_1, DMA : 2, %tile_0_3, DMA : 1)
    aie.flow(%tile_2_1, DMA : 2, %tile_1_3, DMA : 1)
    aie.flow(%tile_2_1, DMA : 2, %tile_2_3, DMA : 1)
    aie.flow(%tile_2_1, DMA : 2, %tile_3_3, DMA : 1)
    aie.flow(%tile_1_1, DMA : 2, %tile_0_4, DMA : 1)
    aie.flow(%tile_1_1, DMA : 2, %tile_1_4, DMA : 1)
    aie.flow(%tile_1_1, DMA : 2, %tile_2_4, DMA : 1)
    aie.flow(%tile_1_1, DMA : 2, %tile_3_4, DMA : 1)
    aie.flow(%tile_0_1, DMA : 2, %tile_0_5, DMA : 1)
    aie.flow(%tile_0_1, DMA : 2, %tile_1_5, DMA : 1)
    aie.flow(%tile_0_1, DMA : 2, %tile_2_5, DMA : 1)
    aie.flow(%tile_0_1, DMA : 2, %tile_3_5, DMA : 1)
    aie.flow(%tile_0_2, DMA : 0, %tile_0_1, DMA : 2)
    aie.flow(%tile_1_2, DMA : 0, %tile_1_1, DMA : 2)
    aie.flow(%tile_2_2, DMA : 0, %tile_2_1, DMA : 2)
    aie.flow(%tile_3_2, DMA : 0, %tile_3_1, DMA : 2)
    aie.flow(%tile_0_3, DMA : 0, %tile_0_1, DMA : 3)
    aie.flow(%tile_1_3, DMA : 0, %tile_1_1, DMA : 3)
    aie.flow(%tile_2_3, DMA : 0, %tile_2_1, DMA : 3)
    aie.flow(%tile_3_3, DMA : 0, %tile_3_1, DMA : 3)
    aie.flow(%tile_0_4, DMA : 0, %tile_0_1, DMA : 4)
    aie.flow(%tile_1_4, DMA : 0, %tile_1_1, DMA : 4)
    aie.flow(%tile_2_4, DMA : 0, %tile_2_1, DMA : 4)
    aie.flow(%tile_3_4, DMA : 0, %tile_3_1, DMA : 4)
    aie.flow(%tile_0_5, DMA : 0, %tile_0_1, DMA : 5)
    aie.flow(%tile_1_5, DMA : 0, %tile_1_1, DMA : 5)
    aie.flow(%tile_2_5, DMA : 0, %tile_2_1, DMA : 5)
    aie.flow(%tile_3_5, DMA : 0, %tile_3_1, DMA : 5)
    %memtile_dma_0_1 = aie.memtile_dma(%tile_0_1) {
      %0 = aie.dma_start(S2MM, 0, ^bb1, ^bb20)
    ^bb1:  // 2 preds: ^bb0, ^bb2
      aie.use_lock(%lock_0_1_34, AcquireGreaterEqual, 1)
      aie.dma_bd(%buf83 : memref<64x256xbf16, 1>, 0, 16384) {task_id = 0 : i32}
      aie.use_lock(%lock_0_1_35, Release, 1)
      aie.next_bd ^bb2
    ^bb2:  // pred: ^bb1
      aie.use_lock(%lock_0_1_32, AcquireGreaterEqual, 1)
      aie.dma_bd(%buf91 : memref<64x256xbf16, 1>, 0, 16384) {task_id = 0 : i32}
      aie.use_lock(%lock_0_1_33, Release, 1)
      aie.next_bd ^bb1
    ^bb3:  // pred: ^bb4
      aie.end
    ^bb4:  // pred: ^bb7
      %1 = aie.dma_start(S2MM, 1, ^bb5, ^bb3)
    ^bb5:  // 2 preds: ^bb4, ^bb6
      aie.use_lock(%lock_0_1_30, AcquireGreaterEqual, 1)
      aie.dma_bd(%buf87 : memref<256x64xbf16, 1>, 0, 16384) {task_id = 0 : i32}
      aie.use_lock(%lock_0_1_31, Release, 1)
      aie.next_bd ^bb6
    ^bb6:  // pred: ^bb5
      aie.use_lock(%lock_0_1_28, AcquireGreaterEqual, 1)
      aie.dma_bd(%buf95 : memref<256x64xbf16, 1>, 0, 16384) {task_id = 0 : i32}
      aie.use_lock(%lock_0_1_29, Release, 1)
      aie.next_bd ^bb5
    ^bb7:  // pred: ^bb9
      %2 = aie.dma_start(S2MM, 2, ^bb8, ^bb4)
    ^bb8:  // 2 preds: ^bb7, ^bb8
      aie.use_lock(%lock_0_1, AcquireGreaterEqual, 1)
      aie.dma_bd(%buf99 : memref<64x256xbf16, 1>, 0, 4096, [<size = 64, stride = 256>, <size = 64, stride = 1>]) {task_id = 0 : i32}
      aie.use_lock(%lock_0_1_27, Release, 1)
      aie.next_bd ^bb8
    ^bb9:  // pred: ^bb11
      %3 = aie.dma_start(S2MM, 3, ^bb10, ^bb7)
    ^bb10:  // 2 preds: ^bb9, ^bb10
      aie.use_lock(%lock_0_1, AcquireGreaterEqual, 1)
      aie.dma_bd(%buf99 : memref<64x256xbf16, 1>, 64, 4096, [<size = 64, stride = 256>, <size = 64, stride = 1>]) {task_id = 0 : i32}
      aie.use_lock(%lock_0_1_27, Release, 1)
      aie.next_bd ^bb10
    ^bb11:  // pred: ^bb13
      %4 = aie.dma_start(S2MM, 4, ^bb12, ^bb9)
    ^bb12:  // 2 preds: ^bb11, ^bb12
      aie.use_lock(%lock_0_1, AcquireGreaterEqual, 1)
      aie.dma_bd(%buf99 : memref<64x256xbf16, 1>, 128, 4096, [<size = 64, stride = 256>, <size = 64, stride = 1>]) {task_id = 0 : i32}
      aie.use_lock(%lock_0_1_27, Release, 1)
      aie.next_bd ^bb12
    ^bb13:  // pred: ^bb15
      %5 = aie.dma_start(S2MM, 5, ^bb14, ^bb11)
    ^bb14:  // 2 preds: ^bb13, ^bb14
      aie.use_lock(%lock_0_1, AcquireGreaterEqual, 1)
      aie.dma_bd(%buf99 : memref<64x256xbf16, 1>, 192, 4096, [<size = 64, stride = 256>, <size = 64, stride = 1>]) {task_id = 0 : i32}
      aie.use_lock(%lock_0_1_27, Release, 1)
      aie.next_bd ^bb14
    ^bb15:  // pred: ^bb17
      %6 = aie.dma_start(MM2S, 0, ^bb16, ^bb13)
    ^bb16:  // 2 preds: ^bb15, ^bb16
      aie.use_lock(%lock_0_1_27, AcquireGreaterEqual, 4)
      aie.dma_bd(%buf99 : memref<64x256xbf16, 1>, 0, 16384) {task_id = 0 : i32}
      aie.use_lock(%lock_0_1, Release, 4)
      aie.next_bd ^bb16
    ^bb17:  // pred: ^bb20
      %7 = aie.dma_start(MM2S, 1, ^bb18, ^bb15)
    ^bb18:  // 2 preds: ^bb17, ^bb19
      aie.use_lock(%lock_0_1_35, AcquireGreaterEqual, 1)
      aie.dma_bd(%buf83 : memref<64x256xbf16, 1>, 0, 16384, [<size = 32, stride = 8>, <size = 64, stride = 256>, <size = 8, stride = 1>]) {task_id = 0 : i32}
      aie.use_lock(%lock_0_1_34, Release, 1)
      aie.next_bd ^bb19
    ^bb19:  // pred: ^bb18
      aie.use_lock(%lock_0_1_33, AcquireGreaterEqual, 1)
      aie.dma_bd(%buf91 : memref<64x256xbf16, 1>, 0, 16384, [<size = 32, stride = 8>, <size = 64, stride = 256>, <size = 8, stride = 1>]) {task_id = 0 : i32}
      aie.use_lock(%lock_0_1_32, Release, 1)
      aie.next_bd ^bb18
    ^bb20:  // pred: ^bb0
      %8 = aie.dma_start(MM2S, 2, ^bb21, ^bb17)
    ^bb21:  // 2 preds: ^bb20, ^bb22
      aie.use_lock(%lock_0_1_31, AcquireGreaterEqual, 1)
      aie.dma_bd(%buf87 : memref<256x64xbf16, 1>, 0, 16384, [<size = 4, stride = 4096>, <size = 16, stride = 4>, <size = 64, stride = 64>, <size = 4, stride = 1>]) {task_id = 0 : i32}
      aie.use_lock(%lock_0_1_30, Release, 1)
      aie.next_bd ^bb22
    ^bb22:  // pred: ^bb21
      aie.use_lock(%lock_0_1_29, AcquireGreaterEqual, 1)
      aie.dma_bd(%buf95 : memref<256x64xbf16, 1>, 0, 16384, [<size = 4, stride = 4096>, <size = 16, stride = 4>, <size = 64, stride = 64>, <size = 4, stride = 1>]) {task_id = 0 : i32}
      aie.use_lock(%lock_0_1_28, Release, 1)
      aie.next_bd ^bb21
    }
    %memtile_dma_1_1 = aie.memtile_dma(%tile_1_1) {
      %0 = aie.dma_start(S2MM, 0, ^bb1, ^bb20)
    ^bb1:  // 2 preds: ^bb0, ^bb2
      aie.use_lock(%lock_1_1_25, AcquireGreaterEqual, 1)
      aie.dma_bd(%buf82 : memref<64x256xbf16, 1>, 0, 16384) {task_id = 0 : i32}
      aie.use_lock(%lock_1_1_26, Release, 1)
      aie.next_bd ^bb2
    ^bb2:  // pred: ^bb1
      aie.use_lock(%lock_1_1_23, AcquireGreaterEqual, 1)
      aie.dma_bd(%buf90 : memref<64x256xbf16, 1>, 0, 16384) {task_id = 0 : i32}
      aie.use_lock(%lock_1_1_24, Release, 1)
      aie.next_bd ^bb1
    ^bb3:  // pred: ^bb4
      aie.end
    ^bb4:  // pred: ^bb7
      %1 = aie.dma_start(S2MM, 1, ^bb5, ^bb3)
    ^bb5:  // 2 preds: ^bb4, ^bb6
      aie.use_lock(%lock_1_1_21, AcquireGreaterEqual, 1)
      aie.dma_bd(%buf86 : memref<256x64xbf16, 1>, 0, 16384) {task_id = 0 : i32}
      aie.use_lock(%lock_1_1_22, Release, 1)
      aie.next_bd ^bb6
    ^bb6:  // pred: ^bb5
      aie.use_lock(%lock_1_1_19, AcquireGreaterEqual, 1)
      aie.dma_bd(%buf94 : memref<256x64xbf16, 1>, 0, 16384) {task_id = 0 : i32}
      aie.use_lock(%lock_1_1_20, Release, 1)
      aie.next_bd ^bb5
    ^bb7:  // pred: ^bb9
      %2 = aie.dma_start(S2MM, 2, ^bb8, ^bb4)
    ^bb8:  // 2 preds: ^bb7, ^bb8
      aie.use_lock(%lock_1_1, AcquireGreaterEqual, 1)
      aie.dma_bd(%buf98 : memref<64x256xbf16, 1>, 0, 4096, [<size = 64, stride = 256>, <size = 64, stride = 1>]) {task_id = 0 : i32}
      aie.use_lock(%lock_1_1_18, Release, 1)
      aie.next_bd ^bb8
    ^bb9:  // pred: ^bb11
      %3 = aie.dma_start(S2MM, 3, ^bb10, ^bb7)
    ^bb10:  // 2 preds: ^bb9, ^bb10
      aie.use_lock(%lock_1_1, AcquireGreaterEqual, 1)
      aie.dma_bd(%buf98 : memref<64x256xbf16, 1>, 64, 4096, [<size = 64, stride = 256>, <size = 64, stride = 1>]) {task_id = 0 : i32}
      aie.use_lock(%lock_1_1_18, Release, 1)
      aie.next_bd ^bb10
    ^bb11:  // pred: ^bb13
      %4 = aie.dma_start(S2MM, 4, ^bb12, ^bb9)
    ^bb12:  // 2 preds: ^bb11, ^bb12
      aie.use_lock(%lock_1_1, AcquireGreaterEqual, 1)
      aie.dma_bd(%buf98 : memref<64x256xbf16, 1>, 128, 4096, [<size = 64, stride = 256>, <size = 64, stride = 1>]) {task_id = 0 : i32}
      aie.use_lock(%lock_1_1_18, Release, 1)
      aie.next_bd ^bb12
    ^bb13:  // pred: ^bb15
      %5 = aie.dma_start(S2MM, 5, ^bb14, ^bb11)
    ^bb14:  // 2 preds: ^bb13, ^bb14
      aie.use_lock(%lock_1_1, AcquireGreaterEqual, 1)
      aie.dma_bd(%buf98 : memref<64x256xbf16, 1>, 192, 4096, [<size = 64, stride = 256>, <size = 64, stride = 1>]) {task_id = 0 : i32}
      aie.use_lock(%lock_1_1_18, Release, 1)
      aie.next_bd ^bb14
    ^bb15:  // pred: ^bb17
      %6 = aie.dma_start(MM2S, 0, ^bb16, ^bb13)
    ^bb16:  // 2 preds: ^bb15, ^bb16
      aie.use_lock(%lock_1_1_18, AcquireGreaterEqual, 4)
      aie.dma_bd(%buf98 : memref<64x256xbf16, 1>, 0, 16384) {task_id = 0 : i32}
      aie.use_lock(%lock_1_1, Release, 4)
      aie.next_bd ^bb16
    ^bb17:  // pred: ^bb20
      %7 = aie.dma_start(MM2S, 1, ^bb18, ^bb15)
    ^bb18:  // 2 preds: ^bb17, ^bb19
      aie.use_lock(%lock_1_1_26, AcquireGreaterEqual, 1)
      aie.dma_bd(%buf82 : memref<64x256xbf16, 1>, 0, 16384, [<size = 32, stride = 8>, <size = 64, stride = 256>, <size = 8, stride = 1>]) {task_id = 0 : i32}
      aie.use_lock(%lock_1_1_25, Release, 1)
      aie.next_bd ^bb19
    ^bb19:  // pred: ^bb18
      aie.use_lock(%lock_1_1_24, AcquireGreaterEqual, 1)
      aie.dma_bd(%buf90 : memref<64x256xbf16, 1>, 0, 16384, [<size = 32, stride = 8>, <size = 64, stride = 256>, <size = 8, stride = 1>]) {task_id = 0 : i32}
      aie.use_lock(%lock_1_1_23, Release, 1)
      aie.next_bd ^bb18
    ^bb20:  // pred: ^bb0
      %8 = aie.dma_start(MM2S, 2, ^bb21, ^bb17)
    ^bb21:  // 2 preds: ^bb20, ^bb22
      aie.use_lock(%lock_1_1_22, AcquireGreaterEqual, 1)
      aie.dma_bd(%buf86 : memref<256x64xbf16, 1>, 0, 16384, [<size = 4, stride = 4096>, <size = 16, stride = 4>, <size = 64, stride = 64>, <size = 4, stride = 1>]) {task_id = 0 : i32}
      aie.use_lock(%lock_1_1_21, Release, 1)
      aie.next_bd ^bb22
    ^bb22:  // pred: ^bb21
      aie.use_lock(%lock_1_1_20, AcquireGreaterEqual, 1)
      aie.dma_bd(%buf94 : memref<256x64xbf16, 1>, 0, 16384, [<size = 4, stride = 4096>, <size = 16, stride = 4>, <size = 64, stride = 64>, <size = 4, stride = 1>]) {task_id = 0 : i32}
      aie.use_lock(%lock_1_1_19, Release, 1)
      aie.next_bd ^bb21
    }
    %memtile_dma_2_1 = aie.memtile_dma(%tile_2_1) {
      %0 = aie.dma_start(S2MM, 0, ^bb1, ^bb20)
    ^bb1:  // 2 preds: ^bb0, ^bb2
      aie.use_lock(%lock_2_1_16, AcquireGreaterEqual, 1)
      aie.dma_bd(%buf80 : memref<64x256xbf16, 1>, 0, 16384) {task_id = 0 : i32}
      aie.use_lock(%lock_2_1_17, Release, 1)
      aie.next_bd ^bb2
    ^bb2:  // pred: ^bb1
      aie.use_lock(%lock_2_1_14, AcquireGreaterEqual, 1)
      aie.dma_bd(%buf89 : memref<64x256xbf16, 1>, 0, 16384) {task_id = 0 : i32}
      aie.use_lock(%lock_2_1_15, Release, 1)
      aie.next_bd ^bb1
    ^bb3:  // pred: ^bb4
      aie.end
    ^bb4:  // pred: ^bb7
      %1 = aie.dma_start(S2MM, 1, ^bb5, ^bb3)
    ^bb5:  // 2 preds: ^bb4, ^bb6
      aie.use_lock(%lock_2_1_12, AcquireGreaterEqual, 1)
      aie.dma_bd(%buf85 : memref<256x64xbf16, 1>, 0, 16384) {task_id = 0 : i32}
      aie.use_lock(%lock_2_1_13, Release, 1)
      aie.next_bd ^bb6
    ^bb6:  // pred: ^bb5
      aie.use_lock(%lock_2_1_10, AcquireGreaterEqual, 1)
      aie.dma_bd(%buf93 : memref<256x64xbf16, 1>, 0, 16384) {task_id = 0 : i32}
      aie.use_lock(%lock_2_1_11, Release, 1)
      aie.next_bd ^bb5
    ^bb7:  // pred: ^bb9
      %2 = aie.dma_start(S2MM, 2, ^bb8, ^bb4)
    ^bb8:  // 2 preds: ^bb7, ^bb8
      aie.use_lock(%lock_2_1, AcquireGreaterEqual, 1)
      aie.dma_bd(%buf97 : memref<64x256xbf16, 1>, 0, 4096, [<size = 64, stride = 256>, <size = 64, stride = 1>]) {task_id = 0 : i32}
      aie.use_lock(%lock_2_1_9, Release, 1)
      aie.next_bd ^bb8
    ^bb9:  // pred: ^bb11
      %3 = aie.dma_start(S2MM, 3, ^bb10, ^bb7)
    ^bb10:  // 2 preds: ^bb9, ^bb10
      aie.use_lock(%lock_2_1, AcquireGreaterEqual, 1)
      aie.dma_bd(%buf97 : memref<64x256xbf16, 1>, 64, 4096, [<size = 64, stride = 256>, <size = 64, stride = 1>]) {task_id = 0 : i32}
      aie.use_lock(%lock_2_1_9, Release, 1)
      aie.next_bd ^bb10
    ^bb11:  // pred: ^bb13
      %4 = aie.dma_start(S2MM, 4, ^bb12, ^bb9)
    ^bb12:  // 2 preds: ^bb11, ^bb12
      aie.use_lock(%lock_2_1, AcquireGreaterEqual, 1)
      aie.dma_bd(%buf97 : memref<64x256xbf16, 1>, 128, 4096, [<size = 64, stride = 256>, <size = 64, stride = 1>]) {task_id = 0 : i32}
      aie.use_lock(%lock_2_1_9, Release, 1)
      aie.next_bd ^bb12
    ^bb13:  // pred: ^bb15
      %5 = aie.dma_start(S2MM, 5, ^bb14, ^bb11)
    ^bb14:  // 2 preds: ^bb13, ^bb14
      aie.use_lock(%lock_2_1, AcquireGreaterEqual, 1)
      aie.dma_bd(%buf97 : memref<64x256xbf16, 1>, 192, 4096, [<size = 64, stride = 256>, <size = 64, stride = 1>]) {task_id = 0 : i32}
      aie.use_lock(%lock_2_1_9, Release, 1)
      aie.next_bd ^bb14
    ^bb15:  // pred: ^bb17
      %6 = aie.dma_start(MM2S, 0, ^bb16, ^bb13)
    ^bb16:  // 2 preds: ^bb15, ^bb16
      aie.use_lock(%lock_2_1_9, AcquireGreaterEqual, 4)
      aie.dma_bd(%buf97 : memref<64x256xbf16, 1>, 0, 16384) {task_id = 0 : i32}
      aie.use_lock(%lock_2_1, Release, 4)
      aie.next_bd ^bb16
    ^bb17:  // pred: ^bb20
      %7 = aie.dma_start(MM2S, 1, ^bb18, ^bb15)
    ^bb18:  // 2 preds: ^bb17, ^bb19
      aie.use_lock(%lock_2_1_17, AcquireGreaterEqual, 1)
      aie.dma_bd(%buf80 : memref<64x256xbf16, 1>, 0, 16384, [<size = 32, stride = 8>, <size = 64, stride = 256>, <size = 8, stride = 1>]) {task_id = 0 : i32}
      aie.use_lock(%lock_2_1_16, Release, 1)
      aie.next_bd ^bb19
    ^bb19:  // pred: ^bb18
      aie.use_lock(%lock_2_1_15, AcquireGreaterEqual, 1)
      aie.dma_bd(%buf89 : memref<64x256xbf16, 1>, 0, 16384, [<size = 32, stride = 8>, <size = 64, stride = 256>, <size = 8, stride = 1>]) {task_id = 0 : i32}
      aie.use_lock(%lock_2_1_14, Release, 1)
      aie.next_bd ^bb18
    ^bb20:  // pred: ^bb0
      %8 = aie.dma_start(MM2S, 2, ^bb21, ^bb17)
    ^bb21:  // 2 preds: ^bb20, ^bb22
      aie.use_lock(%lock_2_1_13, AcquireGreaterEqual, 1)
      aie.dma_bd(%buf85 : memref<256x64xbf16, 1>, 0, 16384, [<size = 4, stride = 4096>, <size = 16, stride = 4>, <size = 64, stride = 64>, <size = 4, stride = 1>]) {task_id = 0 : i32}
      aie.use_lock(%lock_2_1_12, Release, 1)
      aie.next_bd ^bb22
    ^bb22:  // pred: ^bb21
      aie.use_lock(%lock_2_1_11, AcquireGreaterEqual, 1)
      aie.dma_bd(%buf93 : memref<256x64xbf16, 1>, 0, 16384, [<size = 4, stride = 4096>, <size = 16, stride = 4>, <size = 64, stride = 64>, <size = 4, stride = 1>]) {task_id = 0 : i32}
      aie.use_lock(%lock_2_1_10, Release, 1)
      aie.next_bd ^bb21
    }
    %memtile_dma_3_1 = aie.memtile_dma(%tile_3_1) {
      %0 = aie.dma_start(S2MM, 0, ^bb1, ^bb20)
    ^bb1:  // 2 preds: ^bb0, ^bb2
      aie.use_lock(%lock_3_1_7, AcquireGreaterEqual, 1)
      aie.dma_bd(%buf81 : memref<64x256xbf16, 1>, 0, 16384) {task_id = 0 : i32}
      aie.use_lock(%lock_3_1_8, Release, 1)
      aie.next_bd ^bb2
    ^bb2:  // pred: ^bb1
      aie.use_lock(%lock_3_1_5, AcquireGreaterEqual, 1)
      aie.dma_bd(%buf88 : memref<64x256xbf16, 1>, 0, 16384) {task_id = 0 : i32}
      aie.use_lock(%lock_3_1_6, Release, 1)
      aie.next_bd ^bb1
    ^bb3:  // pred: ^bb4
      aie.end
    ^bb4:  // pred: ^bb7
      %1 = aie.dma_start(S2MM, 1, ^bb5, ^bb3)
    ^bb5:  // 2 preds: ^bb4, ^bb6
      aie.use_lock(%lock_3_1_3, AcquireGreaterEqual, 1)
      aie.dma_bd(%buf84 : memref<256x64xbf16, 1>, 0, 16384) {task_id = 0 : i32}
      aie.use_lock(%lock_3_1_4, Release, 1)
      aie.next_bd ^bb6
    ^bb6:  // pred: ^bb5
      aie.use_lock(%lock_3_1_1, AcquireGreaterEqual, 1)
      aie.dma_bd(%buf92 : memref<256x64xbf16, 1>, 0, 16384) {task_id = 0 : i32}
      aie.use_lock(%lock_3_1_2, Release, 1)
      aie.next_bd ^bb5
    ^bb7:  // pred: ^bb9
      %2 = aie.dma_start(S2MM, 2, ^bb8, ^bb4)
    ^bb8:  // 2 preds: ^bb7, ^bb8
      aie.use_lock(%lock_3_1, AcquireGreaterEqual, 1)
      aie.dma_bd(%buf96 : memref<64x256xbf16, 1>, 0, 4096, [<size = 64, stride = 256>, <size = 64, stride = 1>]) {task_id = 0 : i32}
      aie.use_lock(%lock_3_1_0, Release, 1)
      aie.next_bd ^bb8
    ^bb9:  // pred: ^bb11
      %3 = aie.dma_start(S2MM, 3, ^bb10, ^bb7)
    ^bb10:  // 2 preds: ^bb9, ^bb10
      aie.use_lock(%lock_3_1, AcquireGreaterEqual, 1)
      aie.dma_bd(%buf96 : memref<64x256xbf16, 1>, 64, 4096, [<size = 64, stride = 256>, <size = 64, stride = 1>]) {task_id = 0 : i32}
      aie.use_lock(%lock_3_1_0, Release, 1)
      aie.next_bd ^bb10
    ^bb11:  // pred: ^bb13
      %4 = aie.dma_start(S2MM, 4, ^bb12, ^bb9)
    ^bb12:  // 2 preds: ^bb11, ^bb12
      aie.use_lock(%lock_3_1, AcquireGreaterEqual, 1)
      aie.dma_bd(%buf96 : memref<64x256xbf16, 1>, 128, 4096, [<size = 64, stride = 256>, <size = 64, stride = 1>]) {task_id = 0 : i32}
      aie.use_lock(%lock_3_1_0, Release, 1)
      aie.next_bd ^bb12
    ^bb13:  // pred: ^bb15
      %5 = aie.dma_start(S2MM, 5, ^bb14, ^bb11)
    ^bb14:  // 2 preds: ^bb13, ^bb14
      aie.use_lock(%lock_3_1, AcquireGreaterEqual, 1)
      aie.dma_bd(%buf96 : memref<64x256xbf16, 1>, 192, 4096, [<size = 64, stride = 256>, <size = 64, stride = 1>]) {task_id = 0 : i32}
      aie.use_lock(%lock_3_1_0, Release, 1)
      aie.next_bd ^bb14
    ^bb15:  // pred: ^bb17
      %6 = aie.dma_start(MM2S, 0, ^bb16, ^bb13)
    ^bb16:  // 2 preds: ^bb15, ^bb16
      aie.use_lock(%lock_3_1_0, AcquireGreaterEqual, 4)
      aie.dma_bd(%buf96 : memref<64x256xbf16, 1>, 0, 16384) {task_id = 0 : i32}
      aie.use_lock(%lock_3_1, Release, 4)
      aie.next_bd ^bb16
    ^bb17:  // pred: ^bb20
      %7 = aie.dma_start(MM2S, 1, ^bb18, ^bb15)
    ^bb18:  // 2 preds: ^bb17, ^bb19
      aie.use_lock(%lock_3_1_8, AcquireGreaterEqual, 1)
      aie.dma_bd(%buf81 : memref<64x256xbf16, 1>, 0, 16384, [<size = 32, stride = 8>, <size = 64, stride = 256>, <size = 8, stride = 1>]) {task_id = 0 : i32}
      aie.use_lock(%lock_3_1_7, Release, 1)
      aie.next_bd ^bb19
    ^bb19:  // pred: ^bb18
      aie.use_lock(%lock_3_1_6, AcquireGreaterEqual, 1)
      aie.dma_bd(%buf88 : memref<64x256xbf16, 1>, 0, 16384, [<size = 32, stride = 8>, <size = 64, stride = 256>, <size = 8, stride = 1>]) {task_id = 0 : i32}
      aie.use_lock(%lock_3_1_5, Release, 1)
      aie.next_bd ^bb18
    ^bb20:  // pred: ^bb0
      %8 = aie.dma_start(MM2S, 2, ^bb21, ^bb17)
    ^bb21:  // 2 preds: ^bb20, ^bb22
      aie.use_lock(%lock_3_1_4, AcquireGreaterEqual, 1)
      aie.dma_bd(%buf84 : memref<256x64xbf16, 1>, 0, 16384, [<size = 4, stride = 4096>, <size = 16, stride = 4>, <size = 64, stride = 64>, <size = 4, stride = 1>]) {task_id = 0 : i32}
      aie.use_lock(%lock_3_1_3, Release, 1)
      aie.next_bd ^bb22
    ^bb22:  // pred: ^bb21
      aie.use_lock(%lock_3_1_2, AcquireGreaterEqual, 1)
      aie.dma_bd(%buf92 : memref<256x64xbf16, 1>, 0, 16384, [<size = 4, stride = 4096>, <size = 16, stride = 4>, <size = 64, stride = 64>, <size = 4, stride = 1>]) {task_id = 0 : i32}
      aie.use_lock(%lock_3_1_1, Release, 1)
      aie.next_bd ^bb21
    }
    aie.shim_dma_allocation @airMemcpyId78(S2MM, 0, 0)
    memref.global "public" @airMemcpyId78 : memref<64x256xbf16, 1>
    aie.shim_dma_allocation @airMemcpyId79(S2MM, 0, 1)
    memref.global "public" @airMemcpyId79 : memref<64x256xbf16, 1>
    aie.shim_dma_allocation @airMemcpyId80(S2MM, 0, 2)
    memref.global "public" @airMemcpyId80 : memref<64x256xbf16, 1>
    aie.shim_dma_allocation @airMemcpyId81(S2MM, 0, 3)
    memref.global "public" @airMemcpyId81 : memref<64x256xbf16, 1>
    aie.shim_dma_allocation @airMemcpyId13(MM2S, 0, 3)
    memref.global "public" @airMemcpyId13 : memref<64x256xbf16, 1>
    aie.shim_dma_allocation @airMemcpyId14(MM2S, 0, 2)
    memref.global "public" @airMemcpyId14 : memref<64x256xbf16, 1>
    aie.shim_dma_allocation @airMemcpyId15(MM2S, 0, 1)
    memref.global "public" @airMemcpyId15 : memref<64x256xbf16, 1>
    aie.shim_dma_allocation @airMemcpyId16(MM2S, 0, 0)
    memref.global "public" @airMemcpyId16 : memref<64x256xbf16, 1>
    aie.shim_dma_allocation @airMemcpyId17(MM2S, 1, 3)
    memref.global "public" @airMemcpyId17 : memref<256x64xbf16, 1>
    aie.shim_dma_allocation @airMemcpyId18(MM2S, 1, 2)
    memref.global "public" @airMemcpyId18 : memref<256x64xbf16, 1>
    aie.shim_dma_allocation @airMemcpyId19(MM2S, 1, 1)
    memref.global "public" @airMemcpyId19 : memref<256x64xbf16, 1>
    aie.shim_dma_allocation @airMemcpyId20(MM2S, 1, 0)
    memref.global "public" @airMemcpyId20 : memref<256x64xbf16, 1>
  } {sym_name = "matmul_bf16_0"}
  airrt.module_metadata{
  }
  air.channel @channel_0 [1, 1] {broadcast_shape = [1, 4]}
  air.channel @channel_1 [1, 1] {broadcast_shape = [1, 4]}
  air.channel @channel_2 [1, 1] {broadcast_shape = [1, 4]}
  air.channel @channel_3 [1, 1] {broadcast_shape = [1, 4]}
  air.channel @channel_4 [1, 1] {broadcast_shape = [4, 1]}
  air.channel @channel_5 [1, 1] {broadcast_shape = [4, 1]}
  air.channel @channel_6 [1, 1] {broadcast_shape = [4, 1]}
  air.channel @channel_7 [1, 1] {broadcast_shape = [4, 1]}
  air.channel @channel_10 [4, 4]
  air.channel @channel_12 [4, 1]
  air.channel @channel_13 [4, 1]
  air.channel @channel_14 [4, 1]
  func.func private @linalg_fill_bf16_view16x16x4x4xbf16as2(bf16, memref<16x16x4x4xbf16, 2>) attributes {link_with = "mm.o", llvm.emit_c_interface}
  func.func private @matmul_bf16_bf16(memref<8x16x4x8xbf16, 2>, memref<16x8x8x4xbf16, 2>, memref<16x16x4x4xbf16, 2>) attributes {link_with = "mm.o", llvm.emit_c_interface}
  func.func @matmul_bf16(%arg0: memref<512x1024xbf16>, %arg1: memref<1024x512xbf16>, %arg2: memref<512x512xbf16>) {
    %c2 = arith.constant 2 : index
    %0 = air.launch async (%arg3, %arg4) in (%arg5=%c2, %arg6=%c2) args(%arg7=%arg2, %arg8=%arg0, %arg9=%arg1) : memref<512x512xbf16>, memref<512x1024xbf16>, memref<1024x512xbf16> attributes {id = 1 : i32} {
      %c4 = arith.constant 4 : index
      %c3 = arith.constant 3 : index
      %c2_0 = arith.constant 2 : index
      %c64 = arith.constant 64 : index
      %c512 = arith.constant 512 : index
      %c1 = arith.constant 1 : index
      %c0 = arith.constant 0 : index
      %c1024 = arith.constant 1024 : index
      %c256 = arith.constant 256 : index
      %1 = affine.apply #map()[%arg3]
      %2 = affine.apply #map1()[%arg3]
      %3 = affine.apply #map2()[%arg3]
      %4 = affine.apply #map3()[%arg3]
      %5 = air.channel.put async  @channel_12[%c0, %c0] (%arg8[%c0, %1, %c0] [%c4, %c64, %c256] [%c256, %c1024, %c1]) {id = 1 : i32, metadata = @airMemcpyId13} : (memref<512x1024xbf16>)
      %6 = air.channel.put async  @channel_12[%c1, %c0] (%arg8[%c0, %2, %c0] [%c4, %c64, %c256] [%c256, %c1024, %c1]) {id = 2 : i32, metadata = @airMemcpyId14} : (memref<512x1024xbf16>)
      %7 = air.channel.put async  @channel_12[%c2_0, %c0] (%arg8[%c0, %3, %c0] [%c4, %c64, %c256] [%c256, %c1024, %c1]) {id = 3 : i32, metadata = @airMemcpyId15} : (memref<512x1024xbf16>)
      %8 = air.channel.put async  @channel_12[%c3, %c0] (%arg8[%c0, %4, %c0] [%c4, %c64, %c256] [%c256, %c1024, %c1]) {id = 4 : i32, metadata = @airMemcpyId16} : (memref<512x1024xbf16>)
      %9 = affine.apply #map()[%arg4]
      %10 = affine.apply #map1()[%arg4]
      %11 = affine.apply #map2()[%arg4]
      %12 = affine.apply #map3()[%arg4]
      %13 = air.channel.put async  @channel_13[%c0, %c0] (%arg9[%c0, %9] [%c1024, %c64] [%c512, %c1]) {id = 5 : i32, metadata = @airMemcpyId17} : (memref<1024x512xbf16>)
      %14 = air.channel.put async  @channel_13[%c1, %c0] (%arg9[%c0, %10] [%c1024, %c64] [%c512, %c1]) {id = 6 : i32, metadata = @airMemcpyId18} : (memref<1024x512xbf16>)
      %15 = air.channel.put async  @channel_13[%c2_0, %c0] (%arg9[%c0, %11] [%c1024, %c64] [%c512, %c1]) {id = 7 : i32, metadata = @airMemcpyId19} : (memref<1024x512xbf16>)
      %16 = air.channel.put async  @channel_13[%c3, %c0] (%arg9[%c0, %12] [%c1024, %c64] [%c512, %c1]) {id = 8 : i32, metadata = @airMemcpyId20} : (memref<1024x512xbf16>)
      %17 = air.channel.get async  @channel_14[%c0, %c0] (%arg7[%1, %9] [%c64, %c256] [%c512, %c1]) {id = 9 : i32, metadata = @airMemcpyId78} : (memref<512x512xbf16>)
      %18 = air.channel.get async  @channel_14[%c1, %c0] (%arg7[%2, %9] [%c64, %c256] [%c512, %c1]) {id = 10 : i32, metadata = @airMemcpyId79} : (memref<512x512xbf16>)
      %19 = air.channel.get async  @channel_14[%c2_0, %c0] (%arg7[%3, %9] [%c64, %c256] [%c512, %c1]) {id = 11 : i32, metadata = @airMemcpyId80} : (memref<512x512xbf16>)
      %20 = air.channel.get async  @channel_14[%c3, %c0] (%arg7[%4, %9] [%c64, %c256] [%c512, %c1]) {id = 12 : i32, metadata = @airMemcpyId81} : (memref<512x512xbf16>)
      %21 = air.wait_all async [%17, %18, %19, %20] 
      %22 = air.segment @matmul_bf16_0 async  attributes {id = 2 : i32, x_loc = 0 : i64, x_size = 4 : i64, y_loc = 2 : i64, y_size = 4 : i64} {
        %c4096 = arith.constant 4096 : index
        %c32 = arith.constant 32 : index
        %c512_1 = arith.constant 512 : index
        %c3_2 = arith.constant 3 : index
        %c2_3 = arith.constant 2 : index
        %c192 = arith.constant 192 : index
        %c64_4 = arith.constant 64 : index
        %c8 = arith.constant 8 : index
        %c128 = arith.constant 128 : index
        %c16 = arith.constant 16 : index
        %c1_5 = arith.constant 1 : index
        %c4_6 = arith.constant 4 : index
        %c0_7 = arith.constant 0 : index
        %c1024_8 = arith.constant 1024 : index
        %c256_9 = arith.constant 256 : index
        %async_token, %results = air.execute -> (memref<64x256xbf16, 1>) {
          %alloc = memref.alloc() : memref<64x256xbf16, 1>
          air.execute_terminator %alloc : memref<64x256xbf16, 1>
        }
        %async_token_10, %results_11 = air.execute -> (memref<64x256xbf16, 1>) {
          %alloc = memref.alloc() : memref<64x256xbf16, 1>
          air.execute_terminator %alloc : memref<64x256xbf16, 1>
        }
        %async_token_12, %results_13 = air.execute -> (memref<64x256xbf16, 1>) {
          %alloc = memref.alloc() : memref<64x256xbf16, 1>
          air.execute_terminator %alloc : memref<64x256xbf16, 1>
        }
        %async_token_14, %results_15 = air.execute -> (memref<64x256xbf16, 1>) {
          %alloc = memref.alloc() : memref<64x256xbf16, 1>
          air.execute_terminator %alloc : memref<64x256xbf16, 1>
        }
        %async_token_16, %results_17 = air.execute -> (memref<256x64xbf16, 1>) {
          %alloc = memref.alloc() : memref<256x64xbf16, 1>
          air.execute_terminator %alloc : memref<256x64xbf16, 1>
        }
        %async_token_18, %results_19 = air.execute [%async_token_16] -> (memref<256x64xbf16, 1>) {
          %alloc = memref.alloc() : memref<256x64xbf16, 1>
          air.execute_terminator %alloc : memref<256x64xbf16, 1>
        }
        %async_token_20, %results_21 = air.execute [%async_token_18] -> (memref<256x64xbf16, 1>) {
          %alloc = memref.alloc() : memref<256x64xbf16, 1>
          air.execute_terminator %alloc : memref<256x64xbf16, 1>
        }
        %async_token_22, %results_23 = air.execute [%async_token_20] -> (memref<256x64xbf16, 1>) {
          %alloc = memref.alloc() : memref<256x64xbf16, 1>
          air.execute_terminator %alloc : memref<256x64xbf16, 1>
        }
        %async_token_24, %results_25 = air.execute [%async_token_22] -> (memref<64x256xbf16, 1>) {
          %alloc = memref.alloc() : memref<64x256xbf16, 1>
          air.execute_terminator %alloc : memref<64x256xbf16, 1>
        }
        %async_token_26, %results_27 = air.execute [%async_token_24] -> (memref<64x256xbf16, 1>) {
          %alloc = memref.alloc() : memref<64x256xbf16, 1>
          air.execute_terminator %alloc : memref<64x256xbf16, 1>
        }
        %async_token_28, %results_29 = air.execute [%async_token_26] -> (memref<64x256xbf16, 1>) {
          %alloc = memref.alloc() : memref<64x256xbf16, 1>
          air.execute_terminator %alloc : memref<64x256xbf16, 1>
        }
        %async_token_30, %results_31 = air.execute [%async_token_28] -> (memref<64x256xbf16, 1>) {
          %alloc = memref.alloc() : memref<64x256xbf16, 1>
          air.execute_terminator %alloc : memref<64x256xbf16, 1>
        }
        %async_token_32, %results_33 = air.execute [%async_token_30] -> (memref<256x64xbf16, 1>) {
          %alloc = memref.alloc() : memref<256x64xbf16, 1>
          air.execute_terminator %alloc : memref<256x64xbf16, 1>
        }
        %async_token_34, %results_35 = air.execute [%async_token_32] -> (memref<256x64xbf16, 1>) {
          %alloc = memref.alloc() : memref<256x64xbf16, 1>
          air.execute_terminator %alloc : memref<256x64xbf16, 1>
        }
        %async_token_36, %results_37 = air.execute [%async_token_34] -> (memref<256x64xbf16, 1>) {
          %alloc = memref.alloc() : memref<256x64xbf16, 1>
          air.execute_terminator %alloc : memref<256x64xbf16, 1>
        }
        %async_token_38, %results_39 = air.execute [%async_token_36] -> (memref<256x64xbf16, 1>) {
          %alloc = memref.alloc() : memref<256x64xbf16, 1>
          air.execute_terminator %alloc : memref<256x64xbf16, 1>
        }
        %async_token_40, %results_41 = air.execute [%async_token_38] -> (memref<64x256xbf16, 1>) {
          %alloc = memref.alloc() : memref<64x256xbf16, 1>
          air.execute_terminator %alloc : memref<64x256xbf16, 1>
        }
        %async_token_42, %results_43 = air.execute [%async_token_40] -> (memref<64x256xbf16, 1>) {
          %alloc = memref.alloc() : memref<64x256xbf16, 1>
          air.execute_terminator %alloc : memref<64x256xbf16, 1>
        }
        %async_token_44, %results_45 = air.execute [%async_token_42] -> (memref<64x256xbf16, 1>) {
          %alloc = memref.alloc() : memref<64x256xbf16, 1>
          air.execute_terminator %alloc : memref<64x256xbf16, 1>
        }
        %async_token_46, %results_47 = air.execute [%async_token_42] -> (memref<64x256xbf16, 1>) {
          %alloc = memref.alloc() : memref<64x256xbf16, 1>
          air.execute_terminator %alloc : memref<64x256xbf16, 1>
        }
        %23:4 = scf.for %arg10 = %c0_7 to %c1024_8 step %c512_1 iter_args(%arg11 = %async_token_44, %arg12 = %async_token_46, %arg13 = %async_token_46, %arg14 = %async_token_46) -> (!air.async.token, !air.async.token, !air.async.token, !air.async.token) {
          %46 = air.channel.get async [%arg14, %arg11, %async_token_44]  @channel_12[%c0_7, %c0_7] (%results_45[%c0_7, %arg10] [%c64_4, %c256_9] [%c256_9, %c1_5]) {id = 13 : i32} : (memref<64x256xbf16, 1>)
          %47 = air.channel.get async [%arg14, %arg11, %async_token_46]  @channel_12[%c1_5, %c0_7] (%results_47[%c0_7, %arg10] [%c64_4, %c256_9] [%c256_9, %c1_5]) {id = 14 : i32} : (memref<64x256xbf16, 1>)
          %48 = air.channel.get async [%arg14, %arg11, %async_token_42]  @channel_12[%c2_3, %c0_7] (%results_43[%c0_7, %arg10] [%c64_4, %c256_9] [%c256_9, %c1_5]) {id = 15 : i32} : (memref<64x256xbf16, 1>)
          %49 = air.channel.get async [%arg14, %arg11, %async_token_40]  @channel_12[%c3_2, %c0_7] (%results_41[%c0_7, %arg10] [%c64_4, %c256_9] [%c256_9, %c1_5]) {id = 16 : i32} : (memref<64x256xbf16, 1>)
          %50 = air.channel.get async [%arg14, %arg11, %async_token_38]  @channel_13[%c0_7, %c0_7] (%results_39[%arg10, %c0_7] [%c256_9, %c64_4] [%c64_4, %c1_5]) {id = 17 : i32} : (memref<256x64xbf16, 1>)
          %51 = air.channel.get async [%arg14, %arg11, %async_token_36]  @channel_13[%c1_5, %c0_7] (%results_37[%arg10, %c0_7] [%c256_9, %c64_4] [%c64_4, %c1_5]) {id = 18 : i32} : (memref<256x64xbf16, 1>)
          %52 = air.channel.get async [%arg14, %arg11, %async_token_34]  @channel_13[%c2_3, %c0_7] (%results_35[%arg10, %c0_7] [%c256_9, %c64_4] [%c64_4, %c1_5]) {id = 19 : i32} : (memref<256x64xbf16, 1>)
          %53 = air.channel.get async [%arg14, %arg11, %async_token_32]  @channel_13[%c3_2, %c0_7] (%results_33[%arg10, %c0_7] [%c256_9, %c64_4] [%c64_4, %c1_5]) {id = 20 : i32} : (memref<256x64xbf16, 1>)
          %54 = air.wait_all async [%arg13, %46] 
          %55 = air.channel.put async [%54]  @channel_0[] (%results_45[%c0_7, %c0_7, %c0_7] [%c32, %c64_4, %c8] [%c8, %c256_9, %c1_5]) {id = 21 : i32} : (memref<64x256xbf16, 1>)
          %56 = air.wait_all async [%arg13, %47] 
          %57 = air.channel.put async [%56]  @channel_1[] (%results_47[%c0_7, %c0_7, %c0_7] [%c32, %c64_4, %c8] [%c8, %c256_9, %c1_5]) {id = 22 : i32} : (memref<64x256xbf16, 1>)
          %58 = air.wait_all async [%arg13, %48] 
          %59 = air.channel.put async [%58]  @channel_2[] (%results_43[%c0_7, %c0_7, %c0_7] [%c32, %c64_4, %c8] [%c8, %c256_9, %c1_5]) {id = 23 : i32} : (memref<64x256xbf16, 1>)
          %60 = air.wait_all async [%arg13, %49] 
          %61 = air.channel.put async [%60]  @channel_3[] (%results_41[%c0_7, %c0_7, %c0_7] [%c32, %c64_4, %c8] [%c8, %c256_9, %c1_5]) {id = 24 : i32} : (memref<64x256xbf16, 1>)
          %62 = air.wait_all async [%arg13, %50] 
          %63 = air.channel.put async [%62]  @channel_4[] (%results_39[%c0_7, %c0_7, %c0_7, %c0_7] [%c4_6, %c16, %c64_4, %c4_6] [%c4096, %c4_6, %c64_4, %c1_5]) {id = 25 : i32} : (memref<256x64xbf16, 1>)
          %64 = air.wait_all async [%arg13, %51] 
          %65 = air.channel.put async [%64]  @channel_5[] (%results_37[%c0_7, %c0_7, %c0_7, %c0_7] [%c4_6, %c16, %c64_4, %c4_6] [%c4096, %c4_6, %c64_4, %c1_5]) {id = 26 : i32} : (memref<256x64xbf16, 1>)
          %66 = air.wait_all async [%arg13, %52] 
          %67 = air.channel.put async [%66]  @channel_6[] (%results_35[%c0_7, %c0_7, %c0_7, %c0_7] [%c4_6, %c16, %c64_4, %c4_6] [%c4096, %c4_6, %c64_4, %c1_5]) {id = 27 : i32} : (memref<256x64xbf16, 1>)
          %68 = air.wait_all async [%arg13, %53] 
          %69 = air.channel.put async [%68]  @channel_7[] (%results_33[%c0_7, %c0_7, %c0_7, %c0_7] [%c4_6, %c16, %c64_4, %c4_6] [%c4096, %c4_6, %c64_4, %c1_5]) {id = 28 : i32} : (memref<256x64xbf16, 1>)
          %async_token_52 = air.execute [%arg14, %arg11] {
            memref.dealloc %results_45 : memref<64x256xbf16, 1>
          }
          %async_token_53 = air.execute [%arg14, %arg11] {
            memref.dealloc %results_47 : memref<64x256xbf16, 1>
          }
          %async_token_54 = air.execute [%arg14, %arg11] {
            memref.dealloc %results_43 : memref<64x256xbf16, 1>
          }
          %async_token_55 = air.execute [%arg14, %arg11] {
            memref.dealloc %results_41 : memref<64x256xbf16, 1>
          }
          %async_token_56 = air.execute [%arg14, %arg11] {
            memref.dealloc %results_39 : memref<256x64xbf16, 1>
          }
          %async_token_57 = air.execute [%arg14, %arg11] {
            memref.dealloc %results_37 : memref<256x64xbf16, 1>
          }
          %async_token_58 = air.execute [%arg14, %arg11] {
            memref.dealloc %results_35 : memref<256x64xbf16, 1>
          }
          %async_token_59 = air.execute [%arg14, %arg11] {
            memref.dealloc %results_33 : memref<256x64xbf16, 1>
          }
          %70 = air.wait_all async [%46, %47, %48, %49, %50, %51, %52, %53, %55, %57, %59, %61, %63, %65, %67, %69, %async_token_52, %async_token_53, %async_token_54, %async_token_55, %async_token_56, %async_token_57, %async_token_58, %async_token_59] 
          %71 = arith.addi %arg10, %c256_9 : index
          %72 = air.channel.get async [%53, %52, %51, %50, %49, %48, %47, %46, %arg12]  @channel_12[%c0_7, %c0_7] (%results_31[%c0_7, %71] [%c64_4, %c256_9] [%c256_9, %c1_5]) {id = 29 : i32} : (memref<64x256xbf16, 1>)
          %73 = air.channel.get async [%53, %52, %51, %50, %49, %48, %47, %46, %arg12]  @channel_12[%c1_5, %c0_7] (%results_29[%c0_7, %71] [%c64_4, %c256_9] [%c256_9, %c1_5]) {id = 30 : i32} : (memref<64x256xbf16, 1>)
          %74 = air.channel.get async [%53, %52, %51, %50, %49, %48, %47, %46, %arg12]  @channel_12[%c2_3, %c0_7] (%results_27[%c0_7, %71] [%c64_4, %c256_9] [%c256_9, %c1_5]) {id = 31 : i32} : (memref<64x256xbf16, 1>)
          %75 = air.channel.get async [%53, %52, %51, %50, %49, %48, %47, %46, %arg12]  @channel_12[%c3_2, %c0_7] (%results_25[%c0_7, %71] [%c64_4, %c256_9] [%c256_9, %c1_5]) {id = 32 : i32} : (memref<64x256xbf16, 1>)
          %76 = air.channel.get async [%53, %52, %51, %50, %49, %48, %47, %46, %arg12]  @channel_13[%c0_7, %c0_7] (%results_23[%71, %c0_7] [%c256_9, %c64_4] [%c64_4, %c1_5]) {id = 33 : i32} : (memref<256x64xbf16, 1>)
          %77 = air.channel.get async [%53, %52, %51, %50, %49, %48, %47, %46, %arg12]  @channel_13[%c1_5, %c0_7] (%results_21[%71, %c0_7] [%c256_9, %c64_4] [%c64_4, %c1_5]) {id = 34 : i32} : (memref<256x64xbf16, 1>)
          %78 = air.channel.get async [%53, %52, %51, %50, %49, %48, %47, %46, %arg12]  @channel_13[%c2_3, %c0_7] (%results_19[%71, %c0_7] [%c256_9, %c64_4] [%c64_4, %c1_5]) {id = 35 : i32} : (memref<256x64xbf16, 1>)
          %79 = air.channel.get async [%53, %52, %51, %50, %49, %48, %47, %46, %arg12]  @channel_13[%c3_2, %c0_7] (%results_17[%71, %c0_7] [%c256_9, %c64_4] [%c64_4, %c1_5]) {id = 36 : i32} : (memref<256x64xbf16, 1>)
          %80 = air.wait_all async [%70, %72] 
          %81 = air.channel.put async [%80]  @channel_0[] (%results_31[%c0_7, %c0_7, %c0_7] [%c32, %c64_4, %c8] [%c8, %c256_9, %c1_5]) {id = 37 : i32} : (memref<64x256xbf16, 1>)
          %82 = air.wait_all async [%70, %73] 
          %83 = air.channel.put async [%82]  @channel_1[] (%results_29[%c0_7, %c0_7, %c0_7] [%c32, %c64_4, %c8] [%c8, %c256_9, %c1_5]) {id = 38 : i32} : (memref<64x256xbf16, 1>)
          %84 = air.wait_all async [%70, %74] 
          %85 = air.channel.put async [%84]  @channel_2[] (%results_27[%c0_7, %c0_7, %c0_7] [%c32, %c64_4, %c8] [%c8, %c256_9, %c1_5]) {id = 39 : i32} : (memref<64x256xbf16, 1>)
          %86 = air.wait_all async [%70, %75] 
          %87 = air.channel.put async [%86]  @channel_3[] (%results_25[%c0_7, %c0_7, %c0_7] [%c32, %c64_4, %c8] [%c8, %c256_9, %c1_5]) {id = 40 : i32} : (memref<64x256xbf16, 1>)
          %88 = air.wait_all async [%70, %76] 
          %89 = air.channel.put async [%88]  @channel_4[] (%results_23[%c0_7, %c0_7, %c0_7, %c0_7] [%c4_6, %c16, %c64_4, %c4_6] [%c4096, %c4_6, %c64_4, %c1_5]) {id = 41 : i32} : (memref<256x64xbf16, 1>)
          %90 = air.wait_all async [%70, %77] 
          %91 = air.channel.put async [%90]  @channel_5[] (%results_21[%c0_7, %c0_7, %c0_7, %c0_7] [%c4_6, %c16, %c64_4, %c4_6] [%c4096, %c4_6, %c64_4, %c1_5]) {id = 42 : i32} : (memref<256x64xbf16, 1>)
          %92 = air.wait_all async [%70, %78] 
          %93 = air.channel.put async [%92]  @channel_6[] (%results_19[%c0_7, %c0_7, %c0_7, %c0_7] [%c4_6, %c16, %c64_4, %c4_6] [%c4096, %c4_6, %c64_4, %c1_5]) {id = 43 : i32} : (memref<256x64xbf16, 1>)
          %94 = air.wait_all async [%70, %79] 
          %95 = air.channel.put async [%94]  @channel_7[] (%results_17[%c0_7, %c0_7, %c0_7, %c0_7] [%c4_6, %c16, %c64_4, %c4_6] [%c4096, %c4_6, %c64_4, %c1_5]) {id = 44 : i32} : (memref<256x64xbf16, 1>)
          %async_token_60 = air.execute [%53, %52, %51, %50, %49, %48, %47, %46, %arg12] {
            memref.dealloc %results_31 : memref<64x256xbf16, 1>
          }
          %async_token_61 = air.execute [%53, %52, %51, %50, %49, %48, %47, %46, %arg12] {
            memref.dealloc %results_29 : memref<64x256xbf16, 1>
          }
          %async_token_62 = air.execute [%53, %52, %51, %50, %49, %48, %47, %46, %arg12] {
            memref.dealloc %results_27 : memref<64x256xbf16, 1>
          }
          %async_token_63 = air.execute [%53, %52, %51, %50, %49, %48, %47, %46, %arg12] {
            memref.dealloc %results_25 : memref<64x256xbf16, 1>
          }
          %async_token_64 = air.execute [%53, %52, %51, %50, %49, %48, %47, %46, %arg12] {
            memref.dealloc %results_23 : memref<256x64xbf16, 1>
          }
          %async_token_65 = air.execute [%53, %52, %51, %50, %49, %48, %47, %46, %arg12] {
            memref.dealloc %results_21 : memref<256x64xbf16, 1>
          }
          %async_token_66 = air.execute [%53, %52, %51, %50, %49, %48, %47, %46, %arg12] {
            memref.dealloc %results_19 : memref<256x64xbf16, 1>
          }
          %async_token_67 = air.execute [%53, %52, %51, %50, %49, %48, %47, %46, %arg12] {
            memref.dealloc %results_17 : memref<256x64xbf16, 1>
          }
          %96 = air.wait_all async [%72, %73, %74, %75, %76, %77, %78, %79, %81, %83, %85, %87, %89, %91, %93, %95, %async_token_60, %async_token_61, %async_token_62, %async_token_63, %async_token_64, %async_token_65, %async_token_66, %async_token_67] 
          %97 = air.wait_all async [%72, %73, %74, %75, %76, %77, %78, %79] 
          scf.yield %70, %96, %96, %97 : !air.async.token, !air.async.token, !air.async.token, !air.async.token
        }
        %24 = air.channel.get async  @channel_10[%c0_7, %c0_7] (%results[%c0_7, %c0_7] [%c64_4, %c64_4] [%c256_9, %c1_5]) {id = 45 : i32} : (memref<64x256xbf16, 1>)
        %25 = air.channel.get async  @channel_10[%c1_5, %c0_7] (%results_11[%c0_7, %c0_7] [%c64_4, %c64_4] [%c256_9, %c1_5]) {id = 46 : i32} : (memref<64x256xbf16, 1>)
        %26 = air.channel.get async  @channel_10[%c2_3, %c0_7] (%results_13[%c0_7, %c0_7] [%c64_4, %c64_4] [%c256_9, %c1_5]) {id = 47 : i32} : (memref<64x256xbf16, 1>)
        %27 = air.channel.get async  @channel_10[%c3_2, %c0_7] (%results_15[%c0_7, %c0_7] [%c64_4, %c64_4] [%c256_9, %c1_5]) {id = 48 : i32} : (memref<64x256xbf16, 1>)
        %28 = air.channel.get async  @channel_10[%c0_7, %c1_5] (%results[%c0_7, %c64_4] [%c64_4, %c64_4] [%c256_9, %c1_5]) {id = 49 : i32} : (memref<64x256xbf16, 1>)
        %29 = air.channel.get async  @channel_10[%c1_5, %c1_5] (%results_11[%c0_7, %c64_4] [%c64_4, %c64_4] [%c256_9, %c1_5]) {id = 50 : i32} : (memref<64x256xbf16, 1>)
        %30 = air.channel.get async  @channel_10[%c2_3, %c1_5] (%results_13[%c0_7, %c64_4] [%c64_4, %c64_4] [%c256_9, %c1_5]) {id = 51 : i32} : (memref<64x256xbf16, 1>)
        %31 = air.channel.get async  @channel_10[%c3_2, %c1_5] (%results_15[%c0_7, %c64_4] [%c64_4, %c64_4] [%c256_9, %c1_5]) {id = 52 : i32} : (memref<64x256xbf16, 1>)
        %32 = air.channel.get async  @channel_10[%c0_7, %c2_3] (%results[%c0_7, %c128] [%c64_4, %c64_4] [%c256_9, %c1_5]) {id = 53 : i32} : (memref<64x256xbf16, 1>)
        %33 = air.channel.get async  @channel_10[%c1_5, %c2_3] (%results_11[%c0_7, %c128] [%c64_4, %c64_4] [%c256_9, %c1_5]) {id = 54 : i32} : (memref<64x256xbf16, 1>)
        %34 = air.channel.get async  @channel_10[%c2_3, %c2_3] (%results_13[%c0_7, %c128] [%c64_4, %c64_4] [%c256_9, %c1_5]) {id = 55 : i32} : (memref<64x256xbf16, 1>)
        %35 = air.channel.get async  @channel_10[%c3_2, %c2_3] (%results_15[%c0_7, %c128] [%c64_4, %c64_4] [%c256_9, %c1_5]) {id = 56 : i32} : (memref<64x256xbf16, 1>)
        %36 = air.channel.get async  @channel_10[%c0_7, %c3_2] (%results[%c0_7, %c192] [%c64_4, %c64_4] [%c256_9, %c1_5]) {id = 57 : i32} : (memref<64x256xbf16, 1>)
        %37 = air.channel.get async  @channel_10[%c1_5, %c3_2] (%results_11[%c0_7, %c192] [%c64_4, %c64_4] [%c256_9, %c1_5]) {id = 58 : i32} : (memref<64x256xbf16, 1>)
        %38 = air.channel.get async  @channel_10[%c2_3, %c3_2] (%results_13[%c0_7, %c192] [%c64_4, %c64_4] [%c256_9, %c1_5]) {id = 59 : i32} : (memref<64x256xbf16, 1>)
        %39 = air.channel.get async  @channel_10[%c3_2, %c3_2] (%results_15[%c0_7, %c192] [%c64_4, %c64_4] [%c256_9, %c1_5]) {id = 60 : i32} : (memref<64x256xbf16, 1>)
        %40 = air.herd @herd_0 async [%23#1]  tile (%arg10, %arg11) in (%arg12=%c4_6, %arg13=%c4_6) attributes {id = 3 : i32, link_with = "mm.o", x_loc = 0 : i64, y_loc = 2 : i64} {
          %c64_52 = arith.constant 64 : index
          %c256_53 = arith.constant 256 : index
          %c4_54 = arith.constant 4 : index
          %c16_55 = arith.constant 16 : index
          %c1_56 = arith.constant 1 : index
          %cst = arith.constant 0.000000e+00 : bf16
          %c0_57 = arith.constant 0 : index
          %c128_58 = arith.constant 128 : index
          %async_token_59, %results_60 = air.execute -> (memref<16x16x4x4xbf16, 2>) {
            %alloc = memref.alloc() : memref<16x16x4x4xbf16, 2>
            air.execute_terminator %alloc : memref<16x16x4x4xbf16, 2>
          }
          %async_token_61 = air.execute [%async_token_59] {
            func.call @linalg_fill_bf16_view16x16x4x4xbf16as2(%cst, %results_60) : (bf16, memref<16x16x4x4xbf16, 2>) -> ()
          }
          %async_token_62, %results_63 = air.execute [%async_token_61] -> (memref<16x8x8x4xbf16, 2>) {
            %alloc = memref.alloc() : memref<16x8x8x4xbf16, 2>
            air.execute_terminator %alloc : memref<16x8x8x4xbf16, 2>
          }
          %async_token_64, %results_65 = air.execute [%async_token_62] -> (memref<8x16x4x8xbf16, 2>) {
            %alloc = memref.alloc() : memref<8x16x4x8xbf16, 2>
            air.execute_terminator %alloc : memref<8x16x4x8xbf16, 2>
          }
          %async_token_66, %results_67 = air.execute [%async_token_64] -> (memref<8x16x4x8xbf16, 2>) {
            %alloc = memref.alloc() : memref<8x16x4x8xbf16, 2>
            air.execute_terminator %alloc : memref<8x16x4x8xbf16, 2>
          }
          %async_token_68, %results_69 = air.execute [%async_token_64] -> (memref<16x8x8x4xbf16, 2>) {
            %alloc = memref.alloc() : memref<16x8x8x4xbf16, 2>
            air.execute_terminator %alloc : memref<16x8x8x4xbf16, 2>
          }
          %46:3 = scf.for %arg14 = %c0_57 to %c128_58 step %c16_55 iter_args(%arg15 = %async_token_66, %arg16 = %async_token_68, %arg17 = %async_token_68) -> (!air.async.token, !air.async.token, !air.async.token) {
            %48 = affine.if #set()[%arg10, %arg11] -> !air.async.token {
              %53 = air.channel.get async [%arg17, %arg15, %async_token_66]  @channel_0[%arg10, %arg11] (%results_67[] [] []) {id = 61 : i32} : (memref<8x16x4x8xbf16, 2>)
              affine.yield %53 : !air.async.token
            } else {
              %53 = affine.if #set1()[%arg10, %arg11] -> !air.async.token {
                %54 = air.channel.get async [%arg17, %arg15, %async_token_66]  @channel_1[%arg10, %arg11] (%results_67[] [] []) {id = 62 : i32} : (memref<8x16x4x8xbf16, 2>)
                affine.yield %54 : !air.async.token
              } else {
                %54 = affine.if #set2()[%arg10, %arg11] -> !air.async.token {
                  %55 = air.channel.get async [%arg17, %arg15, %async_token_66]  @channel_2[%arg10, %arg11] (%results_67[] [] []) {id = 63 : i32} : (memref<8x16x4x8xbf16, 2>)
                  affine.yield %55 : !air.async.token
                } else {
                  %55 = air.channel.get async [%arg17, %arg15, %async_token_66]  @channel_3[%arg10, %arg11] (%results_67[] [] []) {id = 64 : i32} : (memref<8x16x4x8xbf16, 2>)
                  affine.yield %55 : !air.async.token
                }
                affine.yield %54 : !air.async.token
              }
              affine.yield %53 : !air.async.token
            }
            %49 = affine.if #set3()[%arg10, %arg11] -> !air.async.token {
              %53 = air.channel.get async [%arg17, %arg15, %async_token_68]  @channel_4[%arg10, %arg11] (%results_69[] [] []) {id = 65 : i32} : (memref<16x8x8x4xbf16, 2>)
              affine.yield %53 : !air.async.token
            } else {
              %53 = affine.if #set4()[%arg10, %arg11] -> !air.async.token {
                %54 = air.channel.get async [%arg17, %arg15, %async_token_68]  @channel_5[%arg10, %arg11] (%results_69[] [] []) {id = 66 : i32} : (memref<16x8x8x4xbf16, 2>)
                affine.yield %54 : !air.async.token
              } else {
                %54 = affine.if #set5()[%arg10, %arg11] -> !air.async.token {
                  %55 = air.channel.get async [%arg17, %arg15, %async_token_68]  @channel_6[%arg10, %arg11] (%results_69[] [] []) {id = 67 : i32} : (memref<16x8x8x4xbf16, 2>)
                  affine.yield %55 : !air.async.token
                } else {
                  %55 = air.channel.get async [%arg17, %arg15, %async_token_68]  @channel_7[%arg10, %arg11] (%results_69[] [] []) {id = 68 : i32} : (memref<16x8x8x4xbf16, 2>)
                  affine.yield %55 : !air.async.token
                }
                affine.yield %54 : !air.async.token
              }
              affine.yield %53 : !air.async.token
            }
            %async_token_71 = air.execute [%49, %48] {
              func.call @matmul_bf16_bf16(%results_67, %results_69, %results_60) : (memref<8x16x4x8xbf16, 2>, memref<16x8x8x4xbf16, 2>, memref<16x16x4x4xbf16, 2>) -> ()
            }
            %async_token_72 = air.execute {
              memref.dealloc %results_67 : memref<8x16x4x8xbf16, 2>
            }
            %async_token_73 = air.execute {
              memref.dealloc %results_69 : memref<16x8x8x4xbf16, 2>
            }
            %50 = affine.if #set()[%arg10, %arg11] -> !air.async.token {
              %53 = air.channel.get async [%49, %48, %arg16]  @channel_0[%arg10, %arg11] (%results_65[] [] []) {id = 69 : i32} : (memref<8x16x4x8xbf16, 2>)
              affine.yield %53 : !air.async.token
            } else {
              %53 = affine.if #set1()[%arg10, %arg11] -> !air.async.token {
                %54 = air.channel.get async [%49, %48, %arg16]  @channel_1[%arg10, %arg11] (%results_65[] [] []) {id = 70 : i32} : (memref<8x16x4x8xbf16, 2>)
                affine.yield %54 : !air.async.token
              } else {
                %54 = affine.if #set2()[%arg10, %arg11] -> !air.async.token {
                  %55 = air.channel.get async [%49, %48, %arg16]  @channel_2[%arg10, %arg11] (%results_65[] [] []) {id = 71 : i32} : (memref<8x16x4x8xbf16, 2>)
                  affine.yield %55 : !air.async.token
                } else {
                  %55 = air.channel.get async [%49, %48, %arg16]  @channel_3[%arg10, %arg11] (%results_65[] [] []) {id = 72 : i32} : (memref<8x16x4x8xbf16, 2>)
                  affine.yield %55 : !air.async.token
                }
                affine.yield %54 : !air.async.token
              }
              affine.yield %53 : !air.async.token
            }
            %51 = affine.if #set3()[%arg10, %arg11] -> !air.async.token {
              %53 = air.channel.get async [%49, %48, %arg16]  @channel_4[%arg10, %arg11] (%results_63[] [] []) {id = 73 : i32} : (memref<16x8x8x4xbf16, 2>)
              affine.yield %53 : !air.async.token
            } else {
              %53 = affine.if #set4()[%arg10, %arg11] -> !air.async.token {
                %54 = air.channel.get async [%49, %48, %arg16]  @channel_5[%arg10, %arg11] (%results_63[] [] []) {id = 74 : i32} : (memref<16x8x8x4xbf16, 2>)
                affine.yield %54 : !air.async.token
              } else {
                %54 = affine.if #set5()[%arg10, %arg11] -> !air.async.token {
                  %55 = air.channel.get async [%49, %48, %arg16]  @channel_6[%arg10, %arg11] (%results_63[] [] []) {id = 75 : i32} : (memref<16x8x8x4xbf16, 2>)
                  affine.yield %55 : !air.async.token
                } else {
                  %55 = air.channel.get async [%49, %48, %arg16]  @channel_7[%arg10, %arg11] (%results_63[] [] []) {id = 76 : i32} : (memref<16x8x8x4xbf16, 2>)
                  affine.yield %55 : !air.async.token
                }
                affine.yield %54 : !air.async.token
              }
              affine.yield %53 : !air.async.token
            }
            %async_token_74 = air.execute [%51, %50] {
              func.call @matmul_bf16_bf16(%results_65, %results_63, %results_60) : (memref<8x16x4x8xbf16, 2>, memref<16x8x8x4xbf16, 2>, memref<16x16x4x4xbf16, 2>) -> ()
            }
            %async_token_75 = air.execute {
              memref.dealloc %results_65 : memref<8x16x4x8xbf16, 2>
            }
            %async_token_76 = air.execute {
              memref.dealloc %results_63 : memref<16x8x8x4xbf16, 2>
            }
            %52 = air.wait_all async [%50, %51] 
            scf.yield %async_token_71, %async_token_74, %52 : !air.async.token, !air.async.token, !air.async.token
          }
          %47 = air.channel.put async [%46#1]  @channel_10[%arg10, %arg11] (%results_60[%c0_57, %c0_57, %c0_57] [%c64_52, %c16_55, %c4_54] [%c4_54, %c256_53, %c1_56]) {id = 77 : i32} : (memref<16x16x4x4xbf16, 2>)
          %async_token_70 = air.execute [%47] {
            memref.dealloc %results_60 : memref<16x16x4x4xbf16, 2>
          }
        }
        %41 = air.channel.put async [%40]  @channel_14[%c0_7, %c0_7] (%results[] [] []) {id = 78 : i32} : (memref<64x256xbf16, 1>)
        %42 = air.channel.put async [%40]  @channel_14[%c1_5, %c0_7] (%results_11[] [] []) {id = 79 : i32} : (memref<64x256xbf16, 1>)
        %43 = air.channel.put async [%40]  @channel_14[%c2_3, %c0_7] (%results_13[] [] []) {id = 80 : i32} : (memref<64x256xbf16, 1>)
        %44 = air.channel.put async [%40]  @channel_14[%c3_2, %c0_7] (%results_15[] [] []) {id = 81 : i32} : (memref<64x256xbf16, 1>)
        %45 = air.wait_all async [%41, %42, %43, %44] 
        %async_token_48 = air.execute [%45] {
          memref.dealloc %results_15 : memref<64x256xbf16, 1>
        }
        %async_token_49 = air.execute [%45] {
          memref.dealloc %results_13 : memref<64x256xbf16, 1>
        }
        %async_token_50 = air.execute [%45] {
          memref.dealloc %results_11 : memref<64x256xbf16, 1>
        }
        %async_token_51 = air.execute [%45] {
          memref.dealloc %results : memref<64x256xbf16, 1>
        }
      }
    }
    return
  }
}
